model1.tflite (tflite, 88588 bytes, 14 tensors)

StatefulPartitionedCall/sequential_5/batch_normalization_11/FusedBatchNormV3_add_param f4 [16]
0	0x3d16dded	0.03683274
1	0x3c2c3b6a	0.010512212
2	0x3d6a9605	0.057271976
3	0xbfd921aa	-1.6963398
4	0x3c431ab0	0.011908218
5	0xbfc6435f	-1.548931
6	0x3d13902c	0.036026165
7	0xbb9651fa	-0.004587409
8	0xbe19c2b7	-0.15015684
9	0xbfd4324b	-1.6577848
10	0xbfbf08c2	-1.4924548
11	0xbfec6289	-1.846757
12	0xbd1b0f7a	-0.037856556
13	0xbe3e4044	-0.18579203
14	0xbf367530	-0.71272564
15	0x3ca3818e	0.019959237

StatefulPartitionedCall/sequential_5/batch_normalization_11/FusedBatchNormV3_mul_0_param f4 [16]
0	0x41feeda6	31.86604
1	0x41ff2552	31.893223
2	0x41feb872	31.840061
3	0x407fd9c2	3.997666
4	0x41f03b4c	30.028954
5	0x408be36a	4.3715105
6	0x4200011a	32.001076
7	0x41e3e6c3	28.487677
8	0x4128ebb5	10.557546
9	0x4030ff7b	2.7655933
10	0x410b868a	8.720346
11	0x404844a1	3.1291888
12	0x41fa854b	31.315084
13	0x4105190d	8.318616
14	0x40ce0e76	6.4392653
15	0x41f577db	30.683523

StatefulPartitionedCall/sequential_5/batch_normalization_12/FusedBatchNormV3_add_param f4 [20]
0	0xbf2e03b4	-0.679744
1	0xbf23e146	-0.64015615
2	0xbeb90ea7	-0.3614399
3	0xbefa38db	-0.48871502
4	0xbf08b267	-0.5339722
5	0xbf2239d4	-0.6336949
6	0xbf197478	-0.5994334
7	0xbecdac77	-0.40170643
8	0xbeff4f63	-0.49865255
9	0xbf1bc85c	-0.608526
10	0xbf147f8e	-0.58007133
11	0xbf3801bf	-0.71877664
12	0xbec4051a	-0.38285142
13	0xbf2c3071	-0.67261416
14	0xbf15a2ab	-0.58451337
15	0xbf34a3e8	-0.705626
16	0xbf224545	-0.63386947
17	0xbf297d4a	-0.662068
18	0xbf03325b	-0.5124871
19	0xbee94abc	-0.4556483

StatefulPartitionedCall/sequential_5/batch_normalization_12/FusedBatchNormV3_mul_0_param f4 [20]
0	0x3ffc1aa5	1.9695631
1	0x3fcbf86a	1.5935185
2	0x4031279d	2.7680428
3	0x405fcdfa	3.4969468
4	0x405197d3	3.2748916
5	0x403e1c10	2.9704628
6	0x407cf54f	3.9524724
7	0x40402f71	3.0028956
8	0x402f07d6	2.7348533
9	0x404672b4	3.100751
10	0x4064491a	3.5669618
11	0x406eec46	3.733171
12	0x4040aa43	3.010392
13	0x40535329	3.3019507
14	0x402cd98f	2.7007787
15	0x405d30ff	3.4561155
16	0x400bbf06	2.1835341
17	0x4002c6a5	2.0433743
18	0x40ac94b0	5.3931503
19	0x4042f9e0	3.0465012

StatefulPartitionedCall/sequential_5/conv2d_16/Conv2D/ReadVariableOp f4 [16, 11, 11, 3]
0	0xbca58712	-0.020206008
1	0x3ca1b90e	0.019741561
2	0xbca3ce3c	-0.019995801
3	0x3cf602c2	0.030030612
4	0x3bd41b7c	0.006473003
5	0xbd476e39	-0.0486891
6	0xbd004d11	-0.031323496
7	0xbd8a4a0d	-0.06752405
8	0xbd3f5edf	-0.046721336
9	0xbc905195	-0.017617026
10	0xbd581e71	-0.052763406
11	0xbc148b1e	-0.009066371
12	0xbb8fb7a8	-0.004385907
13	0xbd45bab2	-0.04827375
14	0xbcfa9b56	-0.030591648
15	0xbd065eba	-0.032805182
16	0x3c5a0498	0.013306759
17	0xbcef29ca	-0.029194731
18	0x3bda5926	0.0066634594
19	0xbd565b10	-0.052332938
20	0x3d0f6d7e	0.03501653
21	0xbc435e4d	-0.0119243385
22	0xbd433da9	-0.047666226
23	0x3c6c14a3	0.014409217
24	0xbd1b60ce	-0.037934117
25	0x3cc041a5	0.023468802
26	0xbcb3f9a2	-0.02196962
27	0xbd0e8b13	-0.0348006
28	0xbd13a9ce	-0.03605061
29	0x3d40e001	0.047088627
30	0xbc1c5ed1	-0.00954409
31	0xbd21a000	-0.03945923
32	0x3d16abcf	0.036784943
33	0x3c95b793	0.018276012
34	0xbd92a5d9	-0.07160539
35	0xbd766292	-0.060152598
36	0x3ba67225	0.005079525
37	0xbd6657cb	-0.05623607
38	0xbc0e3507	-0.008679635
39	0x3d169716	0.03676518
40	0xbd58f3de	-0.052966945
41	0xbc4dc0cd	-0.012558174
42	0x3d0953cb	0.033527177
43	0x3c45e8ff	0.012079476
44	0xbd758176	-0.059937917
45	0xbbcf8442	-0.006332905
46	0xbd408780	-0.047004223
47	0x3d4bbb73	0.049739312
48	0xb9956350	-0.00028493488
49	0xbc857cdf	-0.016294895
50	0xbd497dce	-0.049192242
51	0xbc87d5fe	-0.016581532
52	0xbd4c3e1c	-0.04986392
53	0xbcf8308b	-0.030296585
54	0x3cba6956	0.022755306
55	0xbd512ff3	-0.05107112
56	0x3d2bfd31	0.04198951
57	0xbbfbed59	-0.007688206
58	0xbd6aaed8	-0.05729565
59	0x3cefb39a	0.029260445
60	0xbc7f6d59	-0.015590035
61	0x3c67e646	0.014154023
62	0x3c06665f	0.008203118
63	0xbd2d444c	-0.04230146
64	0xbd40dcf3	-0.047085714
65	0xbbc5e30a	-0.006039028
66	0x3c8d9019	0.017280625
67	0xbcfd3823	-0.030910557
68	0xbcfd677c	-0.030933134
69	0xbd174fcd	-0.03694134
70	0xbc32f4ef	-0.0109226545
71	0xbd927101	-0.0715046
72	0x3ce4c41e	0.027925547
73	0x3ceccb16	0.028905433
74	0x3c8595d3	0.016306793
75	0xbc1befdf	-0.009517639
76	0xbd3275a3	-0.04356922
77	0xbd066475	-0.032810647
78	0xbc7cfabb	-0.015440638
79	0xbd368e2b	-0.044569176
80	0x3cbc220a	0.02296545
81	0x3ce696e8	0.02814813
82	0x3cafa7eb	0.021442374
83	0xbc5872f4	-0.013211001
84	0xbc88bc13	-0.016691243
85	0xbd825148	-0.063631594
86	0x3d2e90ff	0.042618748
87	0xbd0a4205	-0.033754367
88	0x3cd0a7b6	0.025470596
89	0x3c88c0d9	0.01669352
90	0xbd880804	-0.06642154
91	0xbcf66025	-0.030075142
92	0x3c21cb2c	0.0098751
93	0x3c9e4f8d	0.019325042
94	0xbcf294b8	-0.02961193
95	0x3d48ba3e	0.04900574
96	0xbd6a44ef	-0.057194646
97	0xbd60463f	-0.054754492
98	0xbb8435ff	-0.004034757
99	0x3b45e15b	0.0030194137
100	0xbcfa59ad	-0.030560339
101	0x3c478770	0.012178287
102	0xba8d7d88	-0.0010794858
103	0xbb9d5d33	-0.00480237
104	0xbcf3dd3e	-0.029768582
105	0xbc57cd91	-0.013171569
106	0x3b8ca840	0.004292518
107	0x3d2db159	0.04240546
108	0xbb90bccc	-0.0044170376
109	0xbb56c466	-0.0032770871
110	0xbc47af64	-0.0121878125
111	0x3c053843	0.00813109
112	0xbd5600c9	-0.052246843
113	0xbd3613fa	-0.044452645
114	0xbd12ad42	-0.035809763
115	0xbd33bfc9	-0.043884072
116	0x3ca0b1bc	0.019616
117	0xbd4ccde1	-0.05000103
118	0xbd7683eb	-0.0601844
119	0xbd2f866b	-0.0428528
120	0x3d001a7e	0.031275265
121	0x3d17ea5f	0.037088748
122	0xbcbe1a7d	-0.02320599
123	0x3c97480f	0.018466977
124	0xbd2be394	-0.041965082
125	0xbc893c4d	-0.016752386
126	0xbd1eccfd	-0.03876971
127	0x3c85c461	0.016328992
128	0xbd33cfa7	-0.043899205
129	0xbd5d86e1	-0.05408371
130	0xbc8f471e	-0.017489966
131	0x3c7093ac	0.014683645
132	0x3c73f367	0.014889575
133	0x3cd57057	0.026054544
134	0xbd1d5781	-0.03841353
135	0xbca3f87f	-0.020015953
136	0x3b278f2f	0.0025567522
137	0xbd31f0cf	-0.043442544
138	0xbd36c3f2	-0.04462046
139	0xbbe9a0c3	-0.00712976
140	0xbcda6b5e	-0.026662525
141	0xbd275bdb	-0.040859085
142	0xbd5ced57	-0.053937282
143	0x3b68d606	0.0035527959
144	0xbc3ecd89	-0.011645683
145	0xbd39e86e	-0.045387678
146	0xbd0917dd	-0.033470023
147	0x3c509ebe	0.01273316
148	0xbd20bce7	-0.03924265
149	0xbcd98fb0	-0.026557773
150	0x3cfedcec	0.031111203
151	0xbac98a65	-0.0015376328
152	0x3c238bf1	0.009982095
153	0xbc988f88	-0.018623129
154	0x3b7d24f3	0.003862676
155	0x3d64b8fa	0.05584047
156	0xbc5048e1	-0.012712688
157	0x3d10c7ea	0.035346903
158	0x3c7a40c2	0.0152742285
159	0x3cb62099	0.02223234
160	0xbd2bc32b	-0.041934174
161	0x3c4f9afa	0.012671227
162	0x3c5ba5ea	0.013406256
163	0xbc9fc813	-0.019504583
164	0xbc178db1	-0.00925009
165	0x38faf24d	0.00011966061
166	0xbd33ea4a	-0.043924607
167	0xbceddb71	-0.029035302
168	0xbd6d3d96	-0.05792006
169	0x3c962f7c	0.01833319
170	0xbce8bbee	-0.028409924
171	0xbcfb87ad	-0.030704344
172	0xbca08c17	-0.01959805
173	0xbd02a6fb	-0.031897526
174	0xbd11a241	-0.035555128
175	0xbb1f134f	-0.0024272983
176	0x3cc03890	0.023464471
177	0xbcd4f03c	-0.025993459
178	0xbc512b07	-0.012766606
179	0x3cc9c00b	0.024627706
180	0xbc31ad2c	-0.01084451
181	0xbc8bda27	-0.017071797
182	0x3ce86dff	0.028372763
183	0xbc344189	-0.011001953
184	0x3d56bfa4	0.052428856
185	0xbd3802df	-0.044924613
186	0xbc9ef860	-0.019405544
187	0x3d06e355	0.032931644
188	0xbcf44ef1	-0.029822798
189	0x3c6e430f	0.014542355
190	0xbca233e0	-0.019800127
191	0xbac4cb06	-0.0015014119
192	0x3b78cc34	0.0037963511
193	0xbbc09d5d	-0.005878134
194	0xbd2ffcb3	-0.042965602
195	0xbca63947	-0.020290984
196	0x3d2c9660	0.042135596
197	0x3bf8c834	0.0075922254
198	0x3cd2e8f5	0.025745848
199	0x3cca34e3	0.024683421
200	0x3d06b26d	0.032885004
201	0x3c51dab0	0.012808487
202	0xbca7c883	-0.020481354
203	0x3d2abe3a	0.04168532
204	0xbd415dbb	-0.04720853
205	0xbd6d63ba	-0.057956435
206	0xbd4f090b	-0.050545733
207	0x3d061071	0.032730523
208	0xbc1cd210	-0.009571567
209	0xbd1b90e4	-0.037979975
210	0x3d116b7f	0.035502907
211	0x3c1de26e	0.009636505
212	0xbc9fc54b	-0.019503256
213	0xbcdd2948	-0.026997223
214	0xbc9b2930	-0.018940538
215	0x3c882843	0.01662076
216	0x3ccdf6b0	0.025142044
217	0x3c813100	0.015770435
218	0x3d01c038	0.031677455
219	0xbcbada78	-0.022809252
220	0xbd1c3c57	-0.038143482
221	0xbd26418e	-0.04058986
222	0x3c4d802d	0.0125427665
223	0xbcd6ca1d	-0.026219422
224	0xbcab3adb	-0.020902088
225	0xbd443aa8	-0.0479075
226	0x3cfe9baf	0.031080095
227	0xbc87fd6c	-0.016600333
228	0x3ceb66e7	0.028735591
229	0x3bca19e3	0.0061676367
230	0xbd50d73e	-0.05098652
231	0xbd147496	-0.036243998
232	0xbd23dad4	-0.040003613
233	0x3d1ba092	0.03799493
234	0xba881a5c	-0.0010383832
235	0xbd14c49c	-0.036320314
236	0x3d2dea1a	0.042459585
237	0x3cceda53	0.02525059
238	0x3d4e4ed7	0.050368156
239	0xbcaa69a8	-0.020802334
240	0x3ca6383b	0.020290485
241	0x39e59009	0.00043785598
242	0x3c6081e2	0.0137028415
243	0x39320ed3	0.00016980925
244	0xbcba5b0f	-0.022748498
245	0xbd782f27	-0.060591843
246	0xbc15f917	-0.009153626
247	0xbc5a02ac	-0.013306301
248	0x3c844c14	0.016149558
249	0xbd5c1488	-0.053730518
250	0xbc0563d6	-0.0081414785
251	0xbcd4c736	-0.025973897
252	0xbbad34a0	-0.0052858144
253	0xbd57f2bd	-0.052721728
254	0xbd1895ab	-0.03725211
255	0xbd13d492	-0.036091395

StatefulPartitionedCall/sequential_5/conv2d_16/Conv2D_bias f4 [16]
0	0xbc3a717f	-0.011379599
1	0x3c355155	0.011066754
2	0xbaecbd0f	-0.0018061715
3	0x3d24a6f7	0.040198293
4	0x3bd61ad2	0.006533959
5	0x3cc444ce	0.02395859
6	0x3c362803	0.011117938
7	0xbac23768	-0.0014817538
8	0x3baa6ed5	0.0052012005
9	0xbbd0f4f3	-0.0063768565
10	0x3cd1e116	0.025620025
11	0xbc1895b8	-0.0093130395
12	0x3c880abd	0.016606683
13	0x3c9b6e4a	0.018973488
14	0x3d9730f6	0.073823854
15	0x3c6cbf7a	0.014449948

StatefulPartitionedCall/sequential_5/conv2d_17/Conv2D/ReadVariableOp f4 [20, 5, 5, 16]
0	0xbc1da661	-0.009622187
1	0xbcff0231	-0.031128975
2	0x3d74ab3e	0.05973362
3	0xbbace274	-0.0052760188
4	0x3c94c4e2	0.018160287
5	0x3d1268aa	0.035744347
6	0xbc66e36d	-0.0140923085
7	0xbd2056bd	-0.03914522
8	0x3d879858	0.06620854
9	0x3d73097b	0.059335213
10	0xbd4a2d78	-0.04935977
11	0x3db0394e	0.0860468
12	0x3cab1163	0.020882314
13	0xbdd6ee14	-0.104946285
14	0x3c45d3bb	0.012074406
15	0xbdae1e9b	-0.08501931
16	0x3cb15395	0.0216463
17	0xbd2b74fe	-0.04185962
18	0x3cd177eb	0.025569877
19	0xbcf1d5df	-0.029520927
20	0x3d8719e2	0.06596734
21	0xbca7b73c	-0.020473115
22	0x3d34e996	0.044168077
23	0x3d8222c5	0.06354288
24	0xbd0083d8	-0.031375736
25	0x3d90ca68	0.07069856
26	0x3d2d11be	0.04225325
27	0xbbb23b7e	-0.005439221
28	0xbd917f72	-0.071043864
29	0xbdabd522	-0.08390261
30	0xbdcfc441	-0.10144854
31	0xbd273e60	-0.04083097
32	0x3d8d24c3	0.06891777
33	0xbdf00832	-0.11720313
34	0xbd2d677c	-0.04233502
35	0x3ca88caf	0.020574896
36	0x3da1f47d	0.079079606
37	0xbd7d8d1d	-0.061902154
38	0x3dd4c97a	0.10389991
39	0x3c9de8a2	0.019275967
40	0xbd857e24	-0.065182
41	0x3d3aa164	0.04556407
42	0xbb703eb3	-0.0036658465
43	0xbcb34076	-0.021881323
44	0x3d8a1987	0.0674315
45	0xbdd2a8ce	-0.10286103
46	0xbcb67cda	-0.02227633
47	0x3c6b217e	0.014351247
48	0xbc7ab13d	-0.015301046
49	0x3c1e00a9	0.009643712
50	0xbd8a65fb	-0.067577325
51	0x3d732d77	0.05936953
52	0x3bdb14b4	0.0066858176
53	0xbd6b8f5c	-0.057509765
54	0xbcb9842b	-0.02264603
55	0xbcd2f620	-0.025752127
56	0x3c8ad64f	0.016947893
57	0xbc881aaa	-0.016614277
58	0xbd9bcdd8	-0.07607621
59	0xbd4abda7	-0.049497273
60	0xbcad42a3	-0.021149939
61	0xbcfefa8b	-0.031125328
62	0xbdcebe75	-0.100949205
63	0xbcd50972	-0.02600548
64	0x3d34ee95	0.044172842
65	0xbd7b9df3	-0.06142993
66	0x3d793a5f	0.060846683
67	0xbda8f018	-0.08248919
68	0xbd96a8bc	-0.07356402
69	0x3d28a1c6	0.041169904
70	0x3ca899c5	0.020581136
71	0x3cfd435c	0.030915909
72	0xbd600754	-0.05469449
73	0xbd871879	-0.06596465
74	0xbd05c7d6	-0.03266128
75	0xbd2ac364	-0.041690245
76	0x3c5df5e3	0.0135473935
77	0xbd63c7ec	-0.055610582
78	0xbda8fceb	-0.08251365
79	0xbdb3e985	-0.08784775
80	0xbcae2ad6	-0.02126066
81	0xbd1d2f32	-0.038375087
82	0xbd2cb561	-0.042165164
83	0xbd7f651e	-0.062352292
84	0xbd210c92	-0.03931863
85	0x3ba1662f	0.0049255113
86	0xbb5e5e87	-0.0033930854
87	0xbd87b7e3	-0.066268705
88	0xbcac2845	-0.021015296
89	0x3c30f1e8	0.010799862
90	0x3cfce068	0.030868724
91	0xbc636ff6	-0.013881674
92	0xbd2c6bb1	-0.04209489
93	0x3b93d570	0.0045115277
94	0x3d223395	0.039599974
95	0x3d640a2c	0.055673763
96	0x3d9a0690	0.07520783
97	0x3d694e44	0.056959406
98	0xbd5198bb	-0.051171046
99	0x3ce97990	0.028500348
100	0xbd48ba49	-0.04900578
101	0x3d258e2f	0.0404188
102	0xbd65a1cf	-0.056062516
103	0xbc6718d6	-0.014105042
104	0x3cc147a8	0.023593739
105	0xbc927f9d	-0.017883116
106	0xbd817bf9	-0.06322474
107	0xbd1c0b06	-0.03809645
108	0xbdbb3185	-0.091403045
109	0x3d78a930	0.060708225
110	0xbd961cd4	-0.07329717
111	0xba7abc8b	-0.0009564838
112	0x3db4f235	0.0883526
113	0x3cd4fcc5	0.025999436
114	0x3ccfa2ff	0.025346277
115	0x3d9b7755	0.0759112
116	0x3cbfa8a7	0.02339585
117	0x3be80aa3	0.007081346
118	0xbc4b8d53	-0.012423831
119	0x3d7366a4	0.059424058
120	0xbd5d1af4	-0.053980783
121	0x3da9c5e1	0.082896955
122	0x3c5d508f	0.013507976
123	0x3d2ce050	0.04220611
124	0x3ccbbe4b	0.024871012
125	0x3d74a800	0.05973053
126	0x3c8e89b7	0.017399652
127	0x3da25b2f	0.07927548
128	0xbb9960d8	-0.004680734
129	0xbda30306	-0.07959561
130	0x3d8b267c	0.0679445
131	0x3d882751	0.06648124
132	0x3b050504	0.002029718
133	0xbd301d1b	-0.042996507
134	0x3d897fb5	0.06713811
135	0xbd2d2534	-0.042271808
136	0xbbdc4449	-0.0067220074
137	0xbccfc08d	-0.02536037
138	0xbd1af702	-0.03783322
139	0xbc12ed31	-0.008967684
140	0x3d1e8256	0.038698517
141	0xbb707dab	-0.0036695998
142	0x3a04c9f3	0.0005065493
143	0xbda6b368	-0.08139688
144	0x3ca2912e	0.019844618
145	0xbba49887	-0.0050230655
146	0x3cbe11fa	0.023201931
147	0x3d0f07a7	0.034919407
148	0x3d91bdaa	0.07116254
149	0xbd429469	-0.047504816
150	0x3caf0a67	0.021367265
151	0xbcfa7fd6	-0.030578535
152	0xbcc50bbb	-0.024053445
153	0x3d0b2bff	0.033977505
154	0xbcd5c3df	-0.026094375
155	0x3d0b26c7	0.033972528
156	0x3d301477	0.042988267
157	0x3c9dc8a9	0.019260721
158	0xbd8bb543	-0.06821682
159	0x3cd3167c	0.025767557
160	0x3c72dce0	0.0148231685
161	0x3d2bbbbb	0.04192708
162	0x3db7acf7	0.08968537
163	0x3d5570e3	0.05210961
164	0x3d67aa07	0.056558635
165	0x3d96c9a7	0.07362681
166	0x3dbea06f	0.09307944
167	0xbd57c820	-0.05268109
168	0xbdb83822	-0.089950815
169	0x3d523cdf	0.051327582
170	0xbd233791	-0.039847914
171	0x3d63a06d	0.055572916
172	0xbd2366d9	-0.039893005
173	0x3db53c00	0.08849335
174	0x3d8e4e7e	0.06948565
175	0x3da9fcc3	0.083001636
176	0xbd034c98	-0.032055467
177	0xbd635cf5	-0.055508573
178	0xbc8f8ad7	-0.017522259
179	0xbd1f04db	-0.03882299
180	0xbd84a7fe	-0.064773545
181	0x3da8f4f6	0.082498476
182	0x3dd59913	0.10429587
183	0xbc370fe8	-0.011173226
184	0xbd082c73	-0.033245515
185	0x3d38419c	0.044984445
186	0x3d8b0656	0.06788318
187	0x3d84cc83	0.0648432
188	0xbd94b69f	-0.07261395
189	0xbcf51765	-0.029918382
190	0x3d804772	0.06263627
191	0xbcb17ba2	-0.021665398
192	0x3caeaf71	0.021323891
193	0x3ce9f574	0.028559424
194	0x3cdbd2b3	0.026833868
195	0xbb7530ad	-0.0037413046
196	0x3d150a07	0.036386516
197	0x3dca95af	0.09891831
198	0xbcbf0327	-0.023316933
199	0x3d3f858f	0.04675823
200	0xbd23f659	-0.040029857
201	0x3dbb28a6	0.091386124
202	0xbcf2aaa9	-0.029622393
203	0x3dd8132f	0.10550534
204	0x3d858e78	0.065213144
205	0xbd87780a	-0.066146925
206	0xbcc06df4	-0.02348993
207	0xbcc44046	-0.02395643
208	0xbd27785a	-0.04088626
209	0x3b38b366	0.0028183102
210	0x3d04f2b6	0.03245803
211	0x3c9f34f1	0.019434424
212	0xbd833419	-0.06406421
213	0x3d907674	0.07053843
214	0xbc9e2120	-0.019302905
215	0xbcb7dbe1	-0.022443714
216	0xbb89edea	-0.00420927
217	0x3d1a5caa	0.037686028
218	0xbce4db35	-0.027936557
219	0x3db879cb	0.09007605
220	0x3ca57e86	0.020201933
221	0xbc118f15	-0.008884211
222	0x3d6de02e	0.058075123
223	0xbd957c91	-0.0729915
224	0xbd2c99e7	-0.04213896
225	0xbdd61f73	-0.10455217
226	0x3d4a3275	0.049364526
227	0x3d89f895	0.067368664
228	0x3b9a6f73	0.004712993
229	0x3d410e9a	0.047133066
230	0x3da207f5	0.07911674
231	0xbd7276f2	-0.059195466
232	0xbd94ced8	-0.07266015
233	0xbd96492f	-0.073381774
234	0x3d6e3488	0.058155566
235	0x3d829ce9	0.063775845
236	0x3da0ebe0	0.078574896
237	0xbd2fc7fd	-0.042915333
238	0x3d401b97	0.04690131
239	0x3d4f0796	0.050544344
240	0xbd6465a9	-0.055761013
241	0x3d0cff89	0.034423385
242	0x3d6bfcb1	0.057614032
243	0x3d5c8f57	0.053847637
244	0xbc004251	-0.007828311
245	0x3d2808fd	0.041024197
246	0x3cd54d5c	0.026037864
247	0x3d2ad540	0.041707277
248	0x3cd8655c	0.02641552
249	0xbd8b4c36	-0.068016455
250	0xbd71e636	-0.059057437
251	0x3c3f1225	0.011662041
252	0xbd5d1e3f	-0.053983923
253	0x3c29a28d	0.0103536965
254	0xbc7662b3	-0.01503818
255	0x3d917b05	0.07103542

StatefulPartitionedCall/sequential_5/conv2d_17/Conv2D_bias f4 [20]
0	0x3c5e0bd3	0.013552624
1	0x3c6a8428	0.014313735
2	0xbcfaf1ab	-0.030632814
3	0xbca97f58	-0.020690605
4	0xbb86ec69	-0.0041175378
5	0x3c84857d	0.016176933
6	0xbbffceaa	-0.0078066187
7	0xbc92aec2	-0.017905597
8	0xbb8b7df9	-0.0042569605
9	0xbc9b6ee9	-0.018973785
10	0x3c1134a7	0.008862651
11	0x3ce30bd2	0.027715597
12	0xbbe47ef4	-0.006973142
13	0x3c8efb4e	0.017453816
14	0x3d411053	0.04713471
15	0xbc8a1d08	-0.016859546
16	0xbb157a9b	-0.0022808674
17	0x3c69153d	0.014226255
18	0x3c158d82	0.009127976
19	0xbc3d434c	-0.011551689

StatefulPartitionedCall/sequential_5/conv2d_18/Conv2D/ReadVariableOp f4 [30, 3, 3, 20]
0	0xbe21ba7d	-0.15793796
1	0x3dab5b0b	0.083669744
2	0x3d124b33	0.035716247
3	0x3d893a01	0.067005165
4	0x3cdcb592	0.026942048
5	0x3d25c0b7	0.04046699
6	0x3dc756b0	0.09733331
7	0x3d38727a	0.04503105
8	0x3db66d41	0.08907557
9	0x3d824403	0.063606285
10	0xbdaf6fea	-0.08566268
11	0xbc02b37a	-0.007977361
12	0xbd00dd55	-0.03146108
13	0xbd6e03c9	-0.05810908
14	0x3d44a07b	0.04800461
15	0xbe1fb156	-0.15594992
16	0xbdba8790	-0.09107888
17	0xbd9cf176	-0.076632425
18	0x3d34fca5	0.044186253
19	0xbd982e3b	-0.07430693
20	0xbab27a60	-0.0013616793
21	0xbd2729ec	-0.040811464
22	0xbdb3c48b	-0.08777722
23	0x3d21193d	0.03933071
24	0xbcb0f4a3	-0.021601027
25	0xbd989c35	-0.07451669
26	0x3da4e7d5	0.08052031
27	0xbd6e1d64	-0.058133498
28	0xbccb6d07	-0.024832262
29	0x3dba689e	0.091019854
30	0xbd940882	-0.07228185
31	0x3d9f7dac	0.07787642
32	0x3d634055	0.055481274
33	0xbd1b97ed	-0.037986685
34	0x3d7c74ac	0.061634704
35	0x3d99ae8e	0.07503997
36	0xbdabc0dd	-0.08386395
37	0xbdde2182	-0.10846235
38	0xbc8919df	-0.01673597
39	0x3db1ee2b	0.08688005
40	0xbe03bf21	-0.12865879
41	0xbdc1c90e	-0.09462176
42	0x3d15c276	0.036562406
43	0x3d8e4bc3	0.06948044
44	0x3d07c0a1	0.03314269
45	0x3ce75af3	0.02824161
46	0xbc7b3340	-0.015332043
47	0x3d777f84	0.060424343
48	0x3cc4c2aa	0.024018604
49	0xbdb7e3e9	-0.08979017
50	0x3ddca57b	0.107737504
51	0x3d66886e	0.056282453
52	0xbdc8cc58	-0.098046005
53	0x3db65f69	0.08904917
54	0xbdc7019d	-0.097171046
55	0xbe018ba3	-0.12650923
56	0x3d2f0b35	0.042735297
57	0x3ce6de75	0.028182248
58	0xbd9ffe5f	-0.07812189
59	0x3d289f6c	0.04116766
60	0xbc6616b7	-0.014043502
61	0xbdb3743f	-0.087624066
62	0x3d42157e	0.047383778
63	0xbd1668da	-0.036721088
64	0xbe16619d	-0.14685674
65	0x3d779849	0.060447965
66	0x3d354743	0.044257414
67	0xbda47e9c	-0.08031961
68	0xbd433cf0	-0.047665536
69	0xbd71469b	-0.058905225
70	0xbd808412	-0.062751904
71	0xbd956215	-0.07294098
72	0xbc5347c9	-0.012895533
73	0xbd025484	-0.03181888
74	0x3c1f9ab7	0.009741477
75	0xbd24d2cd	-0.040240098
76	0xbddba28d	-0.107243635
77	0xbcfa4511	-0.030550512
78	0x3c31f6ad	0.010862035
79	0x3d4563fe	0.048191063
80	0xbe27d02a	-0.16388002
81	0x3cedf380	0.029046774
82	0xbdf71e08	-0.12066275
83	0xbde666b3	-0.11250057
84	0xbd9afe0b	-0.07567986
85	0xbd6cfbdd	-0.057857383
86	0xbd808768	-0.06275827
87	0x3d9a8b32	0.07546081
88	0xbdfaaebe	-0.12240361
89	0xbb16abf0	-0.0022990666
90	0x3d6407bf	0.05567145
91	0xbe0b91d8	-0.13629854
92	0x3dafcc8f	0.08583938
93	0xbb50c908	-0.0031858105
94	0x3c859e78	0.016310915
95	0xbbe25e6e	-0.0069082296
96	0x3c9db91e	0.01925331
97	0x3d3945b9	0.04523251
98	0xbd06c819	-0.03290567
99	0x3bf691d0	0.0075247064
100	0x3d9f3dce	0.0777546
101	0xbda2882b	-0.07936128
102	0x3d81b9bc	0.06334254
103	0xbd479637	-0.04872724
104	0x3c89278a	0.016742487
105	0xbc75a245	-0.014992301
106	0x3d2551a4	0.04036106
107	0x3d8c0a15	0.068378605
108	0xbdaea615	-0.085277714
109	0xbda89fa1	-0.08233572
110	0x3d81dce1	0.063409574
111	0x3dd20fbe	0.10256909
112	0xbb11d3f2	-0.0022251573
113	0xbdeba27f	-0.11505603
114	0xbdce6c24	-0.1007922
115	0x3c22efe4	0.00994489
116	0x3cffac0d	0.03120997
117	0x3d30beff	0.043150898
118	0x3df2e3fa	0.11859889
119	0x3e05d198	0.13068235
120	0xbdae85d1	-0.08521617
121	0x3da9eb35	0.08296815
122	0xbcdf7ca6	-0.027281117
123	0xbe0f5908	-0.13998806
124	0xbe0bb9a9	-0.13645042
125	0x3dd21e43	0.10259678
126	0xbcf6cdae	-0.030127373
127	0x3be36f79	0.006940779
128	0x3d813328	0.063085854
129	0xbd9cd270	-0.07657325
130	0x3c5b8d83	0.013400438
131	0xbdcf7de9	-0.10131437
132	0x3d5f9dc5	0.05459382
133	0xbdd4d102	-0.103914276
134	0xbd8fccb2	-0.070214644
135	0x3d413383	0.047168266
136	0xbd92ffe0	-0.071777105
137	0xbd21b240	-0.039476633
138	0xbdc81b0a	-0.09770782
139	0x3c34f671	0.011045084
140	0x3d651224	0.055925503
141	0xbd286639	-0.041113112
142	0xbccc7a47	-0.02496065
143	0x3d8371fc	0.06418225
144	0xbd1ff0e5	-0.039048094
145	0x3d10efdd	0.035385
146	0x3d821458	0.063515365
147	0x3db4a55e	0.08820604
148	0xbcfafab2	-0.030637119
149	0x3e0e7bdb	0.13914435
150	0x3d75feb1	0.060057346
151	0x3d36df8d	0.04464679
152	0x3d489be2	0.048976786
153	0x3d4b10b1	0.049576465
154	0x3d102719	0.035193536
155	0x3d870638	0.06592983
156	0xbd575d1d	-0.052579034
157	0x3d889685	0.06669334
158	0x3d4150ef	0.047196325
159	0x3b94409f	0.004524305
160	0x3dbe3c7a	0.09288879
161	0xbdccdcd8	-0.1000306
162	0xbdb966cf	-0.09052812
163	0xbc658a11	-0.014009968
164	0x3dc7d0be	0.09756611
165	0x39dfa75f	0.00042658576
166	0xbdfefc36	-0.12450449
167	0x3c868f93	0.016425883
168	0xbdad6a68	-0.08467561
169	0x3c72ee15	0.014827271
170	0x3dd43172	0.103609934
171	0x3e0ce48e	0.13759062
172	0xbd322282	-0.04348994
173	0xbc469515	-0.012120505
174	0x3d72eb5f	0.0593065
175	0xbe013e6e	-0.12621471
176	0xbce67f57	-0.028136892
177	0xbdc07e51	-0.09399093
178	0xbce26b3f	-0.02763903
179	0x3cb30a22	0.021855418
180	0xbc64c787	-0.013963587
181	0xbdb70b32	-0.08937682
182	0xbd0bf808	-0.034172088
183	0xbc6fa73d	-0.014627275
184	0x3dd8879b	0.1057274
185	0x3b0e24cd	0.0021689415
186	0x3dd6f110	0.10495198
187	0x3d655a32	0.05599422
188	0xbca626fa	-0.020282257
189	0x3d0ec635	0.034856994
190	0xbc726f6f	-0.014797076
191	0xbd81c11e	-0.06335662
192	0xbdfac148	-0.12243897
193	0xbdaceb72	-0.08443345
194	0xbc422fe7	-0.011852241
195	0x3d8b288b	0.06794842
196	0x3d0524aa	0.03250567
197	0xbcaed8aa	-0.021343548
198	0xbb77ee91	-0.0037831406
199	0xbda37566	-0.07981376
200	0x3c8c66bb	0.01713883
201	0xbd9c5264	-0.07632902
202	0x3d56b73c	0.05242084
203	0xbdbc1d94	-0.09185329
204	0xbd7bbb33	-0.061457824
205	0xbd1d2934	-0.038369372
206	0x3cc23629	0.023707466
207	0xbd52f230	-0.0515005
208	0x3c5b6657	0.013391099
209	0x3d5447dd	0.051826347
210	0xbbe104d9	-0.006867033
211	0xbdaa5f69	-0.08318979
212	0xbde26026	-0.11053495
213	0xbe2dc829	-0.16970886
214	0x3d95baee	0.07311045
215	0xbde5d780	-0.11222744
216	0xbd61497a	-0.055001713
217	0xbd017a8e	-0.031611018
218	0x3d042d30	0.032269657
219	0x3cedeecf	0.029044537
220	0x3b2877a1	0.002570607
221	0x3d8196bb	0.06327578
222	0x3de3200f	0.11090099
223	0xbd677f23	-0.05651773
224	0x3d8aee93	0.06783786
225	0xbccf0524	-0.025271006
226	0xbdeb501d	-0.1148989
227	0x3dbc3e9e	0.09191631
228	0x3d84427f	0.064579956
229	0x3d260c9d	0.040539373
230	0xbd6b26bd	-0.05740999
231	0xbd5016f6	-0.050803147
232	0xbdc85f32	-0.09783782
233	0xbe0b08b2	-0.13577536
234	0xbdac5581	-0.08414746
235	0xbdaa7544	-0.08323148
236	0xbdd8e775	-0.10591022
237	0xbd8778f8	-0.0661487
238	0xbd8e117b	-0.06936928
239	0xbd0322a0	-0.032015443
240	0x3d6af681	0.05736399
241	0xbc443db5	-0.011977603
242	0xbd522a0a	-0.051309623
243	0xbd807229	-0.06271774
244	0x3c0cd025	0.008594547
245	0x3d4c5a7e	0.049890988
246	0xbc6dcf9d	-0.014514831
247	0x3d73f7ff	0.05956268
248	0x3d102181	0.0351882
249	0xbb5fabc0	-0.003412947
250	0x3c4568b0	0.012048885
251	0x3e07b335	0.13251956
252	0xbcb3c7d5	-0.021945873
253	0xbd8205ce	-0.063487634
254	0xbd37a1b2	-0.04483194
255	0xbd9eb0e0	-0.0774858

StatefulPartitionedCall/sequential_5/conv2d_18/Conv2D_bias f4 [30]
0	0xbb39a4f4	-0.002832708
1	0xbc35e766	-0.011102533
2	0xbc5043da	-0.01271149
3	0xbcc253f7	-0.023721678
4	0x3c99b235	0.018761734
5	0x3cd43fde	0.02590936
6	0x3c9789ba	0.01849829
7	0x3cd8021c	0.026368193
8	0x3cb5ccbe	0.022192355
9	0x3d028cb8	0.03187248
10	0x3b82bae5	0.0039895647
11	0xbc58c3f9	-0.013230317
12	0xbce9f885	-0.028560886
13	0x3cec5865	0.028850744
14	0x3c538652	0.012910442
15	0x3d2d4744	0.042304292
16	0x3bb4bb8b	0.005515521
17	0x3c11d4f8	0.008900873
18	0x3c1e8f96	0.009677788
19	0x3c185109	0.009296664
20	0x3c1e1829	0.009649315
21	0x39dd34fa	0.00042191875
22	0x3cf3d875	0.0297663
23	0x3d17c03b	0.03704856
24	0xbc2a00d0	-0.01037617
25	0x3d09f567	0.0336813
26	0x3d4d27ba	0.050086714
27	0x3d4ca754	0.049964264
28	0x3baf3e48	0.0053480007
29	0xbbd854e9	-0.006601919

StatefulPartitionedCall/sequential_5/dense_10/MatMul/ReadVariableOp/transpose f4 [48, 30]
0	0xbe04c11c	-0.1296429
1	0x3dd7921c	0.10525915
2	0xbdce037a	-0.10059257
3	0x3dd8e2db	0.10590144
4	0x3e7a0efc	0.24419779
5	0xbe1c7472	-0.15278795
6	0x3d2ab918	0.041680425
7	0x3cfff33f	0.031243918
8	0x3dbf879a	0.09352036
9	0xbe6bdfff	-0.23034666
10	0x3d91a1c5	0.07110933
11	0x3ca7f79e	0.020503815
12	0xbe80f895	-0.25189653
13	0xbc948b00	-0.018132687
14	0x3bec9b2b	0.007220646
15	0xbc3ecc6a	-0.011645416
16	0xbea3b331	-0.3197265
17	0x3d7076eb	0.05870716
18	0xbe85fa9f	-0.2616777
19	0x3da19b9e	0.0789101
20	0xbe7aa1c6	-0.24475774
21	0x3e8123fe	0.25222772
22	0xbe01fc8e	-0.12693998
23	0x3e85ceaa	0.26134235
24	0x3e82d1f5	0.2555081
25	0xbe4cd98f	-0.20004867
26	0xbca90f8d	-0.020637298
27	0x3e8170f0	0.25281477
28	0x3e65aa09	0.22428145
29	0xbd96b5d3	-0.07358899
30	0xbe4fa106	-0.2027627
31	0xbd546240	-0.05185151
32	0x3d305a74	0.043055013
33	0x3cb9e4b3	0.02269206
34	0xbd9cc069	-0.07653887
35	0xbe88b8b7	-0.26703426
36	0x3e4d1fa7	0.20031606
37	0x3e0eb45b	0.13935988
38	0x3e3cd06e	0.18438885
39	0x3e54b7e9	0.20773281
40	0xbd40d0d8	-0.04707417
41	0x3d1e5a2f	0.038660225
42	0x3da3cce9	0.07998068
43	0xbc286ed6	-0.010280332
44	0xbe987c22	-0.29782206
45	0xbdf1cbcb	-0.118064485
46	0x3d9cc01f	0.07653832
47	0xbe33de8d	-0.17565365
48	0xbe6fea0a	-0.23429123
49	0xbdba04df	-0.0908296
50	0x3e5a0aee	0.21293232
51	0x3dde66d7	0.10859459
52	0xbdbfb8ed	-0.09361444
53	0xbd8cb597	-0.06870573
54	0x3cc4e0ca	0.024032969
55	0x3d8e23e7	0.069404416
56	0x3d89729c	0.06711313
57	0x3e7a3da2	0.24437574
58	0x3e0fdb82	0.1404858
59	0x3d945a39	0.07243771
60	0xbe1a6941	-0.15079214
61	0xbe9d2622	-0.30693156
62	0x3d0954a7	0.033527996
63	0x3e72beb6	0.23705563
64	0xbe18cf65	-0.14922865
65	0x3d2bb7b0	0.041923225
66	0x3d42259f	0.04739916
67	0xbcfe813b	-0.031067481
68	0xbd82d07e	-0.06387423
69	0x3dfaeeb7	0.122525625
70	0x3d59c854	0.053169563
71	0xbe894c21	-0.26815894
72	0x3e193f52	0.14965561
73	0xbc2000bb	-0.009765799
74	0xb9fe105f	-0.00048458853
75	0xbe444eda	-0.19170704
76	0x3d7fb34b	0.062426846
77	0xbe0a21f4	-0.13489515
78	0x3e8750e4	0.26428902
79	0x3c81bc5c	0.015836887
80	0x3d02ab0e	0.03190141
81	0x3e937d28	0.28806424
82	0x3e68c7ce	0.2273247
83	0xbdfa44c8	-0.1222015
84	0x3e8352bf	0.25649068
85	0xbe55bc03	-0.20872502
86	0xbde85f5f	-0.113463156
87	0x3da40774	0.08009234
88	0xbe410f26	-0.18853435
89	0xbd364563	-0.044499766
90	0xbe4051bf	-0.18781184
91	0xbe099ed3	-0.13439493
92	0xbe0f3520	-0.1398511
93	0x3de41131	0.111360915
94	0xbe6f0e91	-0.233454
95	0x3def27c7	0.11677509
96	0x3ddbe72a	0.107374504
97	0xbe9b762f	-0.30363604
98	0x3eb52da2	0.35386378
99	0x3e0cd44d	0.13752861
100	0xbddc8b0a	-0.10768707
101	0x3e014c96	0.12626871
102	0x3d82ee52	0.06393112
103	0x3e1dfb2d	0.15427847
104	0xbc731370	-0.014836177
105	0x3e354022	0.17700246
106	0x3e337d04	0.17528158
107	0xbd0ef2b2	-0.03489942
108	0xbe958662	-0.29204088
109	0x3dd8d6b4	0.10587826
110	0x3e9285cf	0.28617713
111	0xbe78ac2a	-0.24284425
112	0x3d90156d	0.07035337
113	0x3df37fb0	0.11889589
114	0xbe4604b7	-0.19337736
115	0xbe398ac7	-0.18119346
116	0xbd337a70	-0.043817937
117	0x3c1eee9d	0.0097004445
118	0x3e38866e	0.18020031
119	0xbdf80a58	-0.12111348
120	0xbe25b083	-0.16180615
121	0x3e1c6397	0.15272366
122	0x3dde3ed5	0.10851828
123	0xbe87b796	-0.26507252
124	0x3d2c3605	0.042043705
125	0x3e18314c	0.14862555
126	0xbdaec6fb	-0.08534046
127	0xbdd27f71	-0.10278214
128	0xbc75ec13	-0.015009898
129	0xbd3664a7	-0.044529583
130	0xbe914186	-0.28370303
131	0x3c8078e6	0.015682649
132	0xbc78572e	-0.015157504
133	0xbcf94a41	-0.030430915
134	0xbbd17bfa	-0.006392953
135	0x3df4ea56	0.119587585
136	0xbe0a5609	-0.13509382
137	0x3dc56aa3	0.0963948
138	0x3e0f7ba6	0.14012012
139	0xbdc5ca6b	-0.09657749
140	0xbe8bdd2b	-0.27317175
141	0xbdf27cf8	-0.11840242
142	0xbe795247	-0.24347793
143	0xbe3d078b	-0.18459909
144	0xbe855ab8	-0.26045775
145	0xbe05bf34	-0.1306122
146	0x3e40be8a	0.18822685
147	0xbe05df22	-0.130734
148	0x3e1e4fe3	0.15460162
149	0xbe585a58	-0.21128213
150	0xbddcb562	-0.107767835
151	0x3e9348d8	0.28766513
152	0xbdee92f2	-0.11649121
153	0xbdd7b0e6	-0.105317876
154	0xbdb249f0	-0.08705509
155	0x3e5f847e	0.21827886
156	0xbd814209	-0.06311423
157	0x3d6924d3	0.056919884
158	0x3dd72c2a	0.105064705
159	0x3d8fddab	0.07024702
160	0x3e7b19cf	0.24521564
161	0xbbba9ab4	-0.0056947116
162	0x3e00354f	0.12520336
163	0x3e4671ea	0.19379392
164	0x3e024e43	0.12725167
165	0x3e5cb0bd	0.21551795
166	0xbdf97b0b	-0.12181672
167	0x3e532386	0.2061902
168	0xbe581754	-0.21102649
169	0x3e19ada1	0.1500764
170	0xbdb88a7b	-0.09010788
171	0xbe868e2d	-0.26280347
172	0x3d358255	0.044313747
173	0xbb204e61	-0.002446078
174	0x3e0364d3	0.1283143
175	0xbd8bdb82	-0.06828977
176	0x3d6c5020	0.0576936
177	0x3e8803f1	0.26565507
178	0x3dd2659e	0.10273288
179	0xbb9ce70f	-0.0047882865
180	0xbe9ea6fe	-0.3098678
181	0xbd55067b	-0.052008133
182	0xbeaa6ada	-0.33284646
183	0xbd1c753d	-0.038197745
184	0x3e0bfdc3	0.13671021
185	0x3d7dd76d	0.061973024
186	0x3e07f96f	0.13278745
187	0x3cee4c5a	0.029089142
188	0x3e87f7e7	0.26556322
189	0x3e8aa09f	0.2707567
190	0xbe8f056f	-0.27933833
191	0x3e45177d	0.19247241
192	0xbea6a5ee	-0.3254847
193	0xbdf2b5ad	-0.11851058
194	0xbd50dd06	-0.050992034
195	0x3e640116	0.22266039
196	0xbd1ce41c	-0.03830348
197	0x3daa7b50	0.08324301
198	0xbda675fa	-0.08127971
199	0xbe0c25b5	-0.13686259
200	0xbdf0c099	-0.11755485
201	0x3e1fc642	0.15602973
202	0x3d86e11e	0.065859064
203	0x3e66ab11	0.22526194
204	0xbe62a5fd	-0.22133632
205	0x3e91773b	0.28411278
206	0xbe109a9e	-0.14121482
207	0x3ea3ef96	0.32018727
208	0xbda9fa40	-0.082996845
209	0xbe93b81f	-0.2885141
210	0xbe926aa7	-0.28596994
211	0xbe3877cd	-0.1801445
212	0x3e3b008a	0.18261924
213	0xbd833d94	-0.064082295
214	0xbe11ba59	-0.14231242
215	0x3e436c92	0.19084385
216	0xbe831ec6	-0.25609416
217	0xbd9244fd	-0.07142065
218	0x3df85d07	0.121271186
219	0x3e816283	0.2527047
220	0x3df68bcd	0.12038384
221	0xbd73f312	-0.05955798
222	0x3c775711	0.015096442
223	0x3e120adc	0.14261955
224	0xbd031d8b	-0.032010596
225	0x3df99a6a	0.12187655
226	0x3d8f1851	0.0698706
227	0x3e4c994a	0.1998035
228	0x3df0fbc9	0.11766774
229	0x3d997e8a	0.074948385
230	0xbe18710b	-0.14886872
231	0xbe93cd5b	-0.2886761
232	0x3e8b83e5	0.27249065
233	0xbe434c2c	-0.19072026
234	0xbe70a6f0	-0.23501182
235	0xbe3c8faf	-0.18414186
236	0x3e896a16	0.2683875
237	0x3e41c063	0.18921046
238	0xbea5e307	-0.3239977
239	0x3e0db9da	0.13840428
240	0xbe3b60b4	-0.18298608
241	0x3d7b669d	0.061377157
242	0xbe108445	-0.14112957
243	0x3ea8bf2b	0.3295835
244	0xbdaf43e8	-0.08557874
245	0x3e843a1b	0.2582558
246	0xbe603f59	-0.21899165
247	0x3d8243a5	0.063605584
248	0xbe5621f6	-0.20911393
249	0x3d5f1a39	0.054468367
250	0x3e82dda9	0.25559738
251	0x3d1fcbc8	0.0390127
252	0x3d21b4fe	0.03947925
253	0xbe0bd08b	-0.13653772
254	0x3e56f501	0.20991899
255	0xbe89a98f	-0.26887175

StatefulPartitionedCall/sequential_5/dense_10/MatMul_bias f4 [48]
0	0x3cf86762	0.030322734
1	0xbca42e08	-0.02004148
2	0xb924956c	-0.00015695923
3	0x3c9a4705	0.018832693
4	0xbcd23979	-0.02566217
5	0x3ce5e4de	0.028063234
6	0x3c74bef1	0.014938102
7	0x3c85b195	0.01632003
8	0x3c455c18	0.012045883
9	0x3c5daabe	0.013529478
10	0x3c750207	0.014954097
11	0x3c9e8aa0	0.01935321
12	0xbc9e4301	-0.01931906
13	0xbc02d5a8	-0.00798551
14	0xbc91220a	-0.017716426
15	0x3c6296ae	0.01382987
16	0x3d00422b	0.031313103
17	0x3c875db3	0.016524171
18	0x3c6d4871	0.014482603
19	0xbd674995	-0.056466658
20	0xbc4e9fbc	-0.012611326
21	0x00000000	0.0
22	0x3d73bc9e	0.05950605
23	0xbb67bfc9	-0.0035362116
24	0xbc4ff17a	-0.01269185
25	0xbc8524b4	-0.016252853
26	0xbcda4020	-0.026641905
27	0x3a91112e	0.0011067742
28	0x3caf0aa2	0.021367375
29	0x3d8d92ab	0.0691274
30	0x3c58e3e2	0.013237925
31	0x3919b888	0.0001465996
32	0x3d00f352	0.03148205
33	0xbbbd3626	-0.0057742773
34	0xbd34f5a0	-0.04417956
35	0x3d0772f2	0.033068605
36	0xbc90b8a3	-0.017666167
37	0x3c18c827	0.009325064
38	0x3c61a2c5	0.013771717
39	0x3c8386c4	0.016055472
40	0x3cc39e93	0.023879325
41	0xbbaccd3f	-0.0052734907
42	0x3cced35f	0.025247274
43	0x3d44a63c	0.048010096
44	0x3d07482a	0.033027805
45	0x3d1f21ad	0.038850475
46	0x3c6f677c	0.014612075
47	0x3c7ce675	0.015435805

StatefulPartitionedCall/sequential_5/dense_11/MatMul/ReadVariableOp/transpose f4 [2, 48]
0	0xbeedf195	-0.46473375
1	0xbe0eb20b	-0.13935106
2	0x3e65a1c3	0.22424988
3	0xbe87a8a9	-0.26495865
4	0x3e6afdd6	0.22948393
5	0x3e2da0e2	0.16955903
6	0xbc88b246	-0.01668657
7	0xbdcdd579	-0.10050482
8	0x3e931e8d	0.28734246
9	0xbea24907	-0.3169634
10	0x3ea66c4e	0.32504505
11	0x3dffc136	0.12488024
12	0x3d26b358	0.04069838
13	0x3e34714c	0.17621344
14	0x3d153bfe	0.036434166
15	0x3d6ba063	0.057526004
16	0xbe4cd570	-0.20003295
17	0xbd239124	-0.03993334
18	0xbe6474dc	-0.22310203
19	0xbda7c732	-0.0819229
20	0x3eb01715	0.3439261
21	0xbd012578	-0.031529874
22	0xbe077992	-0.13229969
23	0x3e9317ad	0.28729
24	0x3da28aca	0.07936628
25	0x3e8ff54c	0.28116834
26	0x3e838d71	0.2569385
27	0xbe1a8d0a	-0.15092865
28	0xbe87e12e	-0.26538986
29	0xbeba0107	-0.3632891
30	0x3d183ca6	0.037167214
31	0xbcdefa8a	-0.027219076
32	0x3e2c7967	0.16843186
33	0x3eb47a30	0.35249472
34	0x3e905b72	0.28194767
35	0xbed13ab5	-0.40865102
36	0x3e6e2726	0.23257121
37	0xbebff94f	-0.37494895
38	0xbe4420e1	-0.19153167
39	0xbdcd743d	-0.10031936
40	0xbdba4e38	-0.0909695
41	0x3ec3436d	0.3813738
42	0xbe89f537	-0.26944897
43	0xbeaccb9c	-0.33749092
44	0x3bb5ac36	0.005544211
45	0xbe78f0ab	-0.24310558
46	0xbe86a0a7	-0.26294443
47	0x3dff3533	0.12461319
48	0x3e74a9c1	0.23892881
49	0xbe0d324e	-0.13788721
50	0xbc9bff0a	-0.01904251
51	0x3e0b3033	0.13592605
52	0x3e012d92	0.1261504
53	0x3e8e9720	0.27849674
54	0x3ec043a5	0.3755161
55	0x3dae5c58	0.08513707
56	0xbe786505	-0.24257286
57	0xbe72d9b0	-0.23715854
58	0xbdb991ae	-0.09060989
59	0x3e3fce4c	0.1873104
60	0xbdbef123	-0.09323337
61	0x3e858c79	0.26083735
62	0xbe2269f1	-0.15860726
63	0x3e234541	0.15944387
64	0x3e47cf01	0.1951256
65	0xbe380fee	-0.17974827
66	0x3e877655	0.26457468
67	0xbe16c1db	-0.14722387
68	0xbe24fd86	-0.16112337
69	0x3e3ead34	0.18620759
70	0x3e482ff9	0.1954955
71	0xbecdb30a	-0.40175658
72	0xbd278b4e	-0.040904336
73	0xbecb4eb3	-0.3970848
74	0x3e7d68ef	0.2474706
75	0x3e827d3b	0.25486168
76	0x3dda7089	0.10665996
77	0x3d1b66b7	0.037939753
78	0xbe53bdf1	-0.20677926
79	0xbe5e002b	-0.21679752
80	0x3e81a0d7	0.25318024
81	0xbd622cb4	-0.055218413
82	0x3d7487c7	0.0596998
83	0xbdc7fef5	-0.09765426
84	0x3d8bdb57	0.06828945
85	0xbe75b38a	-0.2399427
86	0xbdaa0aae	-0.08302818
87	0x3e48655c	0.19569916
88	0x3c2be613	0.010491866
89	0x3e694a57	0.22782265
90	0xbdaa8a70	-0.08327186
91	0x3eb3416c	0.3501085
92	0x3e951c40	0.29123116
93	0xbcf6db50	-0.030133873
94	0x3e0259e7	0.12729608
95	0x3ed49f89	0.41527966

StatefulPartitionedCall/sequential_5/dense_11/MatMul_bias f4 [2]
0	0xbcb26d21	-0.021780552
1	0x3cb26d2d	0.021780575
