model.tflite (tflite, 104080 bytes, 10 tensors)

StatefulPartitionedCall/sequential/conv2d/Conv2D/ReadVariableOp f4 [16, 11, 11, 3]
00000000: 607b 82bd 9130 88bd 3bea 7c3d 49fb 653c
00000010: b824 873c 132c 4fbc 5d9d 2d3d dfab 6ebd
00000020: 4b8a ae3d 593b ce3c 8ea1 983c 826c a33d
00000030: 9488 23bd be9c 753c 9a21 b03d 9fb9 093d
00000040: d3df 60bd 028d 023d e367 a3bc cf2e 92bc
00000050: 62cd 9d3d efc6 b0bc 5940 03bd 314a 3a3d
00000060: b763 28bd 7ffe 1dbd eb5a 813d cae7 f13c
00000070: 539e 8fbd bd91 743d d40a 35bb 4921 76bd
00000080: 3d22 7b3d dc31 08bd 7361 c43c c7a3 2d3d
00000090: 148e 7bbd 1a7e 2d3c 8429 893c f96c 733c
000000a0: d6df 63bd 7297 25ba 9f33 5bbd 1e0c 7e3c
000000b0: e12a aa3d cf4f 21bd 4fe7 c7bc bd95 073d
000000c0: e841 b1bc 99ce e43c 8a47 1d3d 6404 7f3b
000000d0: d0ef 24bd cba8 b63d 303a 38bb a135 c83c
000000e0: 8027 6a3d d054 2cbb 17c7 27bd a1ca 293d
000000f0: 89f8 25bd 4eeb 43bd 2a43 fc3c 556d d83c
00000100: b0a8 98bc 3679 123d 30d1 cb3c f599 3c3c
00000110: 3819 8c3d df71 7bbc 92a3 0dbd 482c 8f3c
00000120: 8f71 6a3c 0391 cdbb 1a93 903d 09ea 41bd
00000130: 9591 2fbc c5aa abbb 180b fbba 9039 193d
00000140: 37e3 4c3d 8309 053c db37 a5bc d950 c03d
00000150: 2599 08bd 18c2 9c3c ebc8 b33d 51bd 74bd
00000160: e0aa 26bd fe84 a83d 6066 6dbd 10a6 70bb
00000170: 8e2a 3fbb 3df2 b63c 8e05 81bd 46c1 943d
00000180: f17f 62bd b378 36bb bc65 2d3d 4522 123d
00000190: 38aa d63c 0ccb 4b3d a02c 96bc 6dfb 7abd
000001a0: 4e4a 8b3d 3235 f1bc fcf4 96b9 a628 173d
000001b0: 7b60 d6bc 985f 053d 06d1 083d cd5e 3a3d
000001c0: 26d2 d2bc f582 943c 441f e5bc a57d 113d
000001d0: 2c51 293a cd22 50bd af24 e8bc 864c dcb9
000001e0: d0a8 7dbd e2e3 41bd 869d 0abc 902b eb3c
000001f0: 8f24 e13c d73d 0a3d 684b 4dbd 52ec 5dbd
00000200: 7ada b43b 4399 1bbb 9e6b 20bc 991c f03c
00000210: 7e34 89bc 27e7 8f3b 2448 43bc e90a 273d
00000220: 7f39 03bd 2c97 1bba 34d8 473c 7e76 91bb
00000230: 3405 1dbc 8984 83bc a4b7 20bd ecb7 a83d
00000240: a99c 033d 52bf 33bd ece8 783d d4f6 61bc
00000250: 743a 093b 143c 4d3d b12c 113c 416f 8fbc
00000260: cf20 323d f084 023d 92ae 1abd dd63 3e3c
00000270: a9f4 10bc 5a8d 3bbd 2f86 e6bc c4b9 11bd
00000280: d3f8 d0bc 5c9e f2ba 9a62 eebb d9ea 3fbd
00000290: 3fb7 5a3d 7028 9e3c 5d67 e93c e7af 673c
000002a0: b356 393d 0c08 67bd 64ec e73c 8df7 903b
000002b0: 6699 3c3d d8e0 be3d 4f58 2ebc 3ec3 dd3c
000002c0: 726a 373b ec41 353d ac99 12bd 0921 773d
000002d0: c516 c53c 88a2 8c3c 11da 86bc 2b9b 0b3d
000002e0: 44d6 72bd 71bc 833d 6df3 04bd ccc1 cabc
000002f0: bc63 e63c f73e 0bbc 51c4 93bd b0db 7bbc
00000300: 39bb 47bd 4654 61bd 60cf 0dbd 1b20 d8bc
00000310: fcf4 81bd c99d 6d3d 60e2 d1bc 113e 273d
00000320: bf99 5d3d b83d 30bc c42f 063d 0213 dfbb
00000330: 410c 41bd e3ec 19bd d450 af3d d995 ee3b
00000340: db12 9a3b c7b6 9c3d f1a3 3d3d be1e 55bd
00000350: ce7b b9ba 5eab a43c 1723 4cbd 2478 a93d
00000360: 74c3 2fbc 5189 a53c faee 6c3d 722b 143d
00000370: 8105 e6bc af6c 8d3d f827 42bd f4d1 063c
00000380: 2855 8abc 8a2d 863c b90b 60bd fb65 1f3d
00000390: 5d59 24bd 1d1f 073c 9240 c0bb f7fa 8fbc
000003a0: b91c 2abd fe34 953d 5313 6d3c 9b8e 35bd
000003b0: 8639 473d 3c70 84bc f427 773c 42ed ab3d
000003c0: a2ab 113d b2c0 2ebd 2276 6f3d ecb5 80bb
000003d0: 1669 033d 86e3 873d d593 08ba bc69 46bd
000003e0: 15cd b23c ef3e 7c3c 87e6 edbc 83e8 883d
000003f0: 1175 e4bc 0144 e3bc f392 6c3b cc0b 17bd
-0.06371188 -0.06649888 0.061746817 0.014036962 0.016497001 -0.012644785 0.0423864 -0.058269378
0.08522471 0.025174784 0.018631723 0.079796806 -0.039925173 0.0149909835 0.08600159 0.033624288
-0.054900955 0.031872757 -0.019946998 -0.017844586 0.07705189 -0.021579234 -0.03204379 0.04548091
-0.04111072 -0.038572785 0.06316169 0.029529471 -0.0701262 0.0597093 -0.0027624862 -0.060090337
0.06131195 -0.033250675 0.023972249 0.04239252 -0.061414793 0.010589147 0.016743429 0.014857524
-0.05563339 -0.00063168176 -0.053516027 0.015505819 0.0830896 -0.039382752 -0.024402289 0.033101786
-0.021637872 0.027930545 0.038398303 0.003891253 -0.040267766 0.089189135 -0.0028110854 0.024439635
0.057166576 -0.002629567 -0.04096135 0.041453008 -0.040520225 -0.047831826 0.030793745 0.026419321
-0.018635124 0.035760127 0.024880022 0.011511316 0.068407476 -0.015346973 -0.03457982 0.01747717
0.014309301 -0.0062733903 0.070593074 -0.047342334 -0.010715862 -0.005238863 -0.0019153086 0.03740841
0.050021376 0.008119944 -0.020168236 0.093904205 -0.033349175 0.01913552 0.087785564 -0.05975086
-0.040690303 0.08228491 -0.05795896 -0.0036720075 -0.0029169652 0.022332305 -0.062998876 0.072634265
-0.055297796 -0.0027842938 0.04233335 0.035677213 0.026204214 0.049754187 -0.018331826 -0.061274935
0.06801282 -0.02944431 -0.00028792757 0.036904 -0.026169052 0.03256187 0.033402465 0.045500565
-0.025734972 0.018128851 -0.02796901 0.035520215 0.0006458934 -0.05081444 -0.028337805 -0.00042018684
-0.06192857 -0.047336467 -0.008460408 0.028707296 0.027483253 0.03375038 -0.05012074 -0.05418045
0.0055192085 -0.0023742474 -0.009791283 0.029310511 -0.016748663 0.004391569 -0.011919055 0.04078189
-0.032037254 -0.0005935307 0.012197543 -0.004439174 -0.00958376 -0.016054409 -0.039237633 0.08238205
0.032131825 -0.04388363 0.060769007 -0.013791759 0.0020939382 0.050106123 0.008860753 -0.017509105
0.04348832 0.03186506 -0.03776414 0.011620489 -0.008847394 -0.0457891 -0.028140156 -0.03557755
-0.025509274 -0.001851033 -0.007274938 -0.046854828 0.053397413 0.019306391 0.02849167 0.0141410595
0.0452487 -0.05640416 0.028310962 0.0044240416 0.04604473 0.09320229 -0.010641172 0.027070638
0.002798703 0.04425232 -0.035791084 0.06033424 0.024058709 0.017167345 -0.016461404 0.034083527
-0.05928637 0.06432427 -0.03245871 -0.024750613 0.028123729 -0.008498899 -0.07215179 -0.015372202
-0.048762534 -0.05501201 -0.034621596 -0.026382497 -0.06345555 0.058011804 -0.02562064 0.040830676
0.0541017 -0.010756902 0.032760397 -0.006807686 -0.047130827 -0.03757943 0.085603386 0.007281047
0.004701955 0.076520495 0.046298925 -0.05203127 -0.0014151277 0.020101245 -0.04983815 0.08274868
-0.010727752 0.02020708 0.057845093 0.036174245 -0.028078796 0.069054954 -0.0474014 0.008228768
-0.016886309 0.016379137 -0.05469868 0.038915616 -0.040124286 0.008247164 -0.0058670724 -0.017575724
-0.0415313 0.07285498 0.014469939 -0.044325452 0.048638843 -0.016166799 0.015085209 0.08394863
0.035564072 -0.042664237 0.05846227 -0.003927937 0.03208264 0.066351935 -0.0005210017 -0.04844068
0.021826306 0.015395864 -0.029040588 0.06684973 -0.027887853 -0.027742388 0.003609833 -0.036876485

StatefulPartitionedCall/sequential/conv2d/Conv2D_bias f4 [16]
00000000: 9cc3 8abc ec8f afbd d4d6 15bd c6d5 a63c
00000010: a729 883c 07e1 78bd 1c24 babb 09f8 f63b
00000020: 49fd ba3c 8584 4ebd 311e 5cbd 8cb4 4cbd
00000030: 4f55 543c afcc 92ba 588d bfbb a2f0 96bc
-0.016938977 -0.08572373 -0.03658183 0.020365607 0.016621424 -0.060761478 -0.005680574 0.0075368923
0.022825854 -0.05041935 -0.05373973 -0.04997687 0.012959792 -0.0011199916 -0.005845707 -0.01842529

StatefulPartitionedCall/sequential/conv2d_1/Conv2D/ReadVariableOp f4 [20, 5, 5, 16]
00000000: bfc3 783d 9e3d 3c3d 2d7b d4bc 905b 853d
00000010: 50dd 24bd 4d13 883d bfea 2b3d 0ecd 943d
00000020: 0cdd 533c 76a3 a63b 20c4 1ebd 48ce 903d
00000030: 92ae fb3c ba7b 033d 1c3e 0abe 0ca8 4abd
00000040: eb04 4d3c b442 84bd c763 8e3d 0091 1d3c
00000050: 856a dcbc d557 163d 5cfd 9d3d 64cb 553b
00000060: e5b5 513c 5e71 dd3c aaed 9e3d 8d60 563c
00000070: 1cc7 77bd f03d 0b3d 106b 4f3d ce21 a43a
00000080: 5afc ebbc 77b0 b73d b3c1 9a3d b39c 123d
00000090: 0097 e5bd e44c a33c 9286 603b 5da5 223d
000000a0: 4ef2 b7bc 134f 353c 535b a23d 0ad8 bb3d
000000b0: 4392 163d d021 0abc 4eed 533d 3e9f 4c3d
000000c0: f70e cf3d 0215 36bc 6842 0a3d 52ca a0bd
000000d0: 3940 df3b 71ad 683d a24d 003e 4951 c7bc
000000e0: ba5f c63d 2992 59bd d5f9 843d a690 a83d
000000f0: ad8e 9cbc 927a 57bd 2ce5 66bd 9f3b a03d
00000100: 10f7 173d ecc0 e43c 9504 b33d 8b07 c1bd
00000110: 1e60 31bd 438c dfbc 2e16 ae3d 508e acbd
00000120: a953 1abd 944f 91bc 7a8d 1e3c cebe a13d
00000130: 44cc 6abd f0e6 6e3d 10e5 a13d c81b 663d
00000140: 6433 023c 6bb2 563d 209a afbb 681f f43c
00000150: 721e 3d3c 5b8f dc3d a79a 753d 6410 13bd
00000160: 085c 71bc 43b8 113d 846a 423d 15e9 bfbc
00000170: 54e5 143c 7b26 63bd f514 46bb 000e 993d
00000180: 6786 d2ba 6256 2d3d b7ab ccbc 0977 b83d
00000190: 561d fbbd 9563 0e3d 9106 653d a2ec 08bc
000001a0: f988 0d3d 3764 573c 950a b03c 0d5c 49bd
000001b0: ce5e 903c 68bc 93bc fb0e cb3c ef0d 0a3c
000001c0: fa1f 293d 14b1 9f3d 5d9e 7c3d 2bca 9d3d
000001d0: 107e c2bd 0cf4 11bc 26b9 6bbd c0aa 233d
000001e0: d7f2 ee3d 5924 82bb faf4 d3ba 7d67 183d
000001f0: 48a3 c73d 6c3a b43c 30bb 913c 3995 633d
00000200: ea2b 6abc ce69 893d f75b 293d 9676 acbc
00000210: fbc1 abbc b6e8 ec3c ca72 8c3d 9512 843c
00000220: fcef 2dbb 8991 ad3d 9a8c 17bc 7bb8 74bd
00000230: d503 8f3d 805d 89ba a7b8 b03c 4e36 a13d
00000240: b4e1 af3d a5f1 81bd 7757 913d 6c85 7abd
00000250: 1361 cbbc 3c8a 3e3d 53e7 56bd 2aeb 193d
00000260: d84d b43c a4a3 803d 72a1 953d f843 b7bd
00000270: e959 57bd 2c30 163d bc01 2e3d b838 0a3d
00000280: 002b 353b c64a 973d 85c2 15bd 70f9 6f3c
00000290: d2eb f93a 9cf5 9e3c 3205 d6bb 7bde fbb9
000002a0: c6ee 12bd 780e 20bb fe3b 7ebd 67e3 743a
000002b0: 61dc abbc 3919 86bd 97cf 113d b6cc 2a3d
000002c0: eeeb dbbc 6515 8a3d 746b 973c 549f 99bd
000002d0: 608e d3bc ebac 1fbd 3e36 b53d 298a c03d
000002e0: 3c0b a1bc 3156 f43c 0001 653d 6615 4d3d
000002f0: fda4 18bc 189f c13c b525 02bb 0fe5 c6bc
00000300: b62c 9e3c 1f7c 023d a857 3a3d 8d49 da3a
00000310: f40e 1dbc 80cb b3bd 13f6 883d 1ad0 12bd
00000320: 01a2 cabd 8260 353d a9b4 643d cf1a 9cbd
00000330: 7101 63bd c0fe bb3b 9834 1fbd 468b 47bc
00000340: 6dfa f43c fb69 8dbc c56f d43c 0c0d 683d
00000350: 25fd a53d 14c4 603c c88c 473d 3b3f 723d
00000360: f3de 24bb 3f3f 773d bb4b b53b 5d2e b5bd
00000370: 322d 65bd 9814 a83c 3632 b13d 3324 963d
00000380: 18aa 833d 9fb5 323c 52e0 283d 3219 bbbd
00000390: 8a46 06bd 922c 9fbd 12e8 84bd 1361 82bc
000003a0: 9cf8 adbd 9b5b 28bc 6baf 733d f61a 3bbb
000003b0: e96d 6ebd 00eb ea39 ffd4 733d b4b9 b33d
000003c0: 8097 cdbb d6aa c5bc b1cb d93c e5e2 fbbc
000003d0: 7fd5 9e3d 4fbe d13d ed35 e63d 7864 c13d
000003e0: 2363 923d 9bfc 103d 8cef 17bd 76a5 893d
000003f0: 3c9a 9fbd ec75 863d ad34 aebc 9a0c 9dbd
0.060733553 0.0459572 -0.025937641 0.06511605 -0.040250123 0.06644306 0.04197192 0.072656736
0.01293112 0.005085404 -0.038761258 0.07070595 0.03072289 0.032100417 -0.13500255 -0.04947667
0.01251338 -0.06458035 0.06952625 0.00961709 -0.026906261 0.036704857 0.0771434 0.003262245
0.012799715 0.027031597 0.077601746 0.013084543 -0.06049262 0.033994615 0.050639212 0.0012522282
-0.028806854 0.08969205 0.075564764 0.03579397 -0.112104416 0.019934125 0.0034259898 0.039708484
-0.022454407 0.011066216 0.07927575 0.091720656 0.03676058 -0.008430913 0.051739983 0.049956553
0.10110276 -0.011113407 0.033754736 -0.078510895 0.006813076 0.05680603 0.12529615 -0.024330752
0.09686227 -0.053117905 0.06492964 0.082307145 -0.019111002 -0.052607127 -0.0563709 0.07823872
0.03710085 0.027924024 0.08741108 -0.09425267 -0.043304555 -0.027288562 0.08500324 -0.084255815
-0.03767744 -0.017738141 0.009677285 0.07897721 -0.05732371 0.058325708 0.07905018 0.056178838
0.007946823 0.052416246 -0.0053589493 0.029800132 0.011542903 0.107695304 0.05996194 -0.035904303
-0.014731415 0.035576116 0.047464862 -0.023426572 0.009087879 -0.05545662 -0.0030224894 0.074733734
-0.0016061784 0.04231871 -0.024984224 0.09007079 -0.12261455 0.034762938 0.055914465 -0.008357199
0.034554455 0.013146452 0.02148942 -0.049160052 0.017623331 -0.018034175 0.024787417 0.008426174
0.04129026 0.07797447 0.061674464 0.07704576 -0.09496701 -0.008908283 -0.05754962 0.03995776
0.11667412 -0.003971618 -0.0016171031 0.03720807 0.0974794 0.022000514 0.017789453 0.05556223
-0.0142926965 0.06709634 0.04134747 -0.02105264 -0.02096652 0.028919559 0.06857832 0.016122142
-0.0026540747 0.08475024 -0.009249831 -0.059746247 0.06983153 -0.0010480136 0.021572424 0.07871686
0.08587971 -0.06344918 0.07096761 -0.061162397 -0.024826562 0.04651855 -0.0524667 0.037577786
0.022009775 0.06281212 0.07306184 -0.08948511 -0.05257598 0.036667034 0.042482123 0.033745497
0.0027644038 0.07387309 -0.03656246 0.014646873 0.0019067472 0.019404225 -0.006531381 -0.00048040212
-0.035872243 -0.0024422687 -0.06206893 0.0009341747 -0.020979108 -0.065477796 0.035598364 0.041699134
-0.026845898 0.06742362 0.018483855 -0.075010926 -0.025824726 -0.038983267 0.088482365 0.09401352
-0.019658677 0.029826256 0.055909157 0.050069235 -0.00931668 0.023635432 -0.00198589 -0.024279146
0.01930843 0.031856652 0.04549375 0.0016654 -0.009586085 -0.08779049 0.0668756 -0.035842992
-0.09894181 0.04428149 0.055836353 -0.07622301 -0.055421297 0.0057371557 -0.038868517 -0.0121792015
0.029904569 -0.01726245 0.025932202 0.056653067 0.08104924 0.013718624 0.048718244 0.059142333
-0.0025157302 0.06036305 0.0055327094 -0.08846734 -0.055951305 0.020517632 0.08652155 0.07331123
0.06428927 0.01090756 0.041229554 -0.09135665 -0.032782115 -0.07772173 -0.064895764 -0.01591543
-0.08494684 -0.010275747 0.059493463 -0.0028550006 -0.058210287 0.00044807047 0.0595293 0.087756544
-0.0062741637 -0.024129312 0.026586385 -0.03074784 0.07755565 0.102413766 0.11240754 0.09442991
0.07147815 0.035397153 -0.037093684 0.06721012 -0.0779309 0.065654606 -0.021265352 -0.07668419

StatefulPartitionedCall/sequential/conv2d_1/Conv2D_bias f4 [20]
00000000: 7397 d23c 8f40 863b ee5e e6bc 12f8 293d
00000010: 86f0 e8bc 7f1d 283d 2358 313c 618a 8cbc
00000020: 4f2f 433d 6345 fe3c b558 393d c22f 533c
00000030: a725 bc3c 893c 34bd a700 4cbb ad96 843b
00000040: 0c94 10bd 5857 3cbc 882d 82bc 2e6a 183d
0.025706982 0.0040970515 -0.028121438 0.041496344 -0.028435003 0.041043755 0.010824236 -0.017155828
0.04765254 0.031038946 0.045250613 0.012889804 0.022967173 -0.044003043 -0.0031128319 0.0040462823
-0.03529744 -0.011495434 -0.015890852 0.037210636

StatefulPartitionedCall/sequential/conv2d_2/Conv2D/ReadVariableOp f4 [30, 3, 3, 20]
00000000: 00bb 813d 2e6f 1dbd 17fb 36bd fe44 3abd
00000010: 28ba cebd bedd f7bc a343 d6bd c973 4ebd
00000020: e096 f7bc 3c11 02bc 9299 b93d 3bfd 6e3b
00000030: 2635 8f3d 82a6 ad3d a0c0 873c ee06 f93c
00000040: 71d4 56bb 1768 a5bd b49d 92bc 1ff4 3abd
00000050: 11b3 ce3d 67f0 80bd 6fff 6bbc fe6a 93bd
00000060: fe07 bb3d f9bf 8d3d 6605 cd3c 5d19 82bd
00000070: 9eda e93c fd32 d1bd d48d a1bd 7326 0ebd
00000080: 484f 64bd ef64 933d ace0 2bbd 82fc d43d
00000090: 53e9 b83d 7155 bdbd ad65 cbbd 2fd8 21bd
000000a0: 5f6b 0b3d 2e29 e93c 94c5 853d e355 6dbd
000000b0: 2b06 28bc c014 1b3d 6867 79bd 6dab 513c
000000c0: 3856 99bc 6c4e 90bd fb1c acbc 8eea a2bd
000000d0: 171e cebd f33e a73c 80e8 173d 81d1 5d3c
000000e0: 6b04 b13d 5f95 553b 4bdd 5b3d 5494 d23d
000000f0: e751 b93b b482 f4bd 7256 aabd 6469 a1bd
00000100: 2acf 923d 5994 d3bd c18f 84bc 2d48 b83d
00000110: 4846 db3c 28e3 593d d167 643d eed6 f1bd
00000120: a8d5 7e3d 25e6 b7bd 301b 38bc 77cf d93b
00000130: 02df cfbd b70c ad3c 17ab c9bd fe39 33bd
00000140: 7cdd b63d 0087 f1bd eb6b 7fbd 0581 58bd
00000150: a253 5ebd 9644 adbc 19f1 433d 0cc5 a43d
00000160: 682b 803c 47b4 2e3d baae e1bd ebca 283c
00000170: ace8 8fbd 48cb 0f3c f064 1fbc db1b 923d
00000180: c105 1a3c ba02 f0bd 781a 133d 09ec 84bd
00000190: ec58 abbd 6257 a83d 0208 c03d 99bf 8e39
000001a0: cf99 de3d b25e a13d 10d2 4c3d 3187 433d
000001b0: a7d2 94bd c8d2 d5bc 9bd5 bf3d fc89 aebd
000001c0: a4f2 5ebc cb57 97bd 004a ea39 d657 693c
000001d0: dce6 3a3d e0ad 4ebd 29b4 e83d 5737 af3b
000001e0: 2f6a c6bd b778 0b3c 12d3 b53d b77b 123d
000001f0: 5487 8bbd 8ebc 1c3d 4d62 6b3d 9810 e3bb
00000200: 7f48 443d ef50 bb3d 8051 3bbd cc4b 803d
00000210: a342 dc3c a58f 5abd ad19 3abd 6a79 c9bd
00000220: e078 12be 9e24 a83b 62a0 373d 8ad2 fbbc
00000230: da5a a6bd 13a1 893d a309 11bd 26fb 843d
00000240: 46ab 86bd 8cd0 4cbc 78b4 afbb 2a3c d43d
00000250: c7c3 5d3d 6067 603d 2768 6ebd 998a db3d
00000260: 6951 cebd c72c 63bd 06d7 ad3d 4636 9f3c
00000270: a4cb 973d b94b 6bbd 2058 06bd 3e7e 883c
00000280: a48a a43c c1d9 fcbd 452a 78bc dc4f 673c
00000290: 43a0 a93d 075c 8e3d 7e4b 77bd 39e0 9ebd
000002a0: abb6 93bd 3517 7c3d 83fe 0d3e 4175 babd
000002b0: 13c2 95bd b322 babd 26e5 34bd 9ef0 ffbc
000002c0: 4adc a2bc dd8b 39bc 84cf 9f3d 6dd5 853d
000002d0: d837 b6bd 26e5 f6bc fa7d 7abc 980b 513d
000002e0: 901d b1bd 7819 e3bb a3a9 693d 81ba 5bbd
000002f0: 7d46 c03d ac06 91bd 4b07 8b3d 9317 e43d
00000300: 0327 bdbd 0bc9 50bd 3a2b be3d dc6f 64bd
00000310: 97b2 8fbd bf00 903c 1e61 f8bb be1d c5bd
00000320: 829e 193e 7320 b0bb 83e4 41bd 004c 89bd
00000330: 73d3 ce3c 4607 c13d 682c b23c c222 a0bd
00000340: 4ec4 46bd 0723 f03d 24e3 80bd 94eb 54bc
00000350: 9749 623c 9f61 ff3c f8d1 06bd 01c4 a13d
00000360: c694 92bd 0540 dc3d 7ddd 803d 778a 88bd
00000370: 5300 f53d f97b ab3d 5c61 71bd 54c5 0e3e
00000380: 4e33 8fbd 955f a13d 88a2 41bb 612d 0f3d
00000390: 6410 af3d 2923 28bc b7c4 e9bc efff 363d
000003a0: db17 813c 3505 cdbd 08a9 5f3d 63fa b7bd
000003b0: b482 703d 19e1 d23d c0f8 843d 0351 323b
000003c0: 677f 413d 6f69 223d 3746 233c 6f16 5dbd
000003d0: 330e d13d 65e0 ce3b ee56 8cbb 7f11 71bd
000003e0: a4b0 1b3e e73b 733d 352e edbd d3d1 d8bd
000003f0: 97af b13d 3aff 04bd 2686 34bd 2ffb ed3d
0.063344955 -0.038436107 -0.04467305 -0.045475952 -0.100941 -0.030257102 -0.104621194 -0.05040339
-0.03022331 -0.007938679 0.09062494 0.0036466855 0.06992559 0.084790245 0.016571343 0.030398812
-0.0032780434 -0.08076494 -0.017897464 -0.04564297 0.10092748 -0.06295853 -0.014404162 -0.071981415
0.09132384 0.069213815 0.025026988 -0.06352494 0.028546628 -0.10214803 -0.0788838 -0.034704637
-0.05573967 0.07196986 -0.04196231 0.103997245 0.09028878 -0.09244812 -0.099315025 -0.03951281
0.034037944 0.028462019 0.06531826 -0.057943236 -0.010255377 0.037861586 -0.06088963 0.012797219
-0.01871787 -0.07046208 -0.021009913 -0.07954894 -0.10064333 0.020415759 0.037086964 0.013538719
0.08643421 0.0032590253 0.05367784 0.102821976 0.0056555155 -0.11938992 -0.083172694 -0.0788143
0.0716842 -0.103310294 -0.016181828 0.089981414 0.026766911 0.05319515 0.05576307 -0.11808573
0.062215477 -0.089794435 -0.011236951 0.006647046 -0.10149957 0.021124227 -0.09847086 -0.043756478
0.089289635 -0.11793327 -0.062358778 -0.052857418 -0.054278977 -0.021150868 0.04783735 0.08045396
0.015645698 0.042652395 -0.110196546 0.010302286 -0.070268005 0.008776493 -0.009728655 0.07134219
0.009400786 -0.1171927 0.035913914 -0.06490333 -0.0836657 0.08219792 0.09376527 0.00027227102
0.108691804 0.0787939 0.05000502 0.04773635 -0.07266741 -0.026101485 0.09366914 -0.08522412
-0.013607655 -0.07389792 0.00044687092 0.014242133 0.04563032 -0.05045879 0.11362488 0.005347173
-0.09688222 0.008512667 0.08878149 0.035762515 -0.06812921 0.038265757 0.057466794 -0.0069294684
0.0479207 0.09146296 -0.04573202 0.06264457 0.026887244 -0.053359646 -0.045434643 -0.09837611
-0.14303923 0.0051313182 0.044830687 -0.030740041 -0.08122797 0.067201756 -0.03540958 0.06493215
-0.065756366 -0.012500893 -0.0053620897 0.10363038 0.054141786 0.054786086 -0.058204796 0.10719795
-0.100741215 -0.055462625 0.08488278 0.01943506 0.07411888 -0.05744526 -0.032798886 0.01666176
0.02008564 -0.12346221 -0.015146797 0.014118161 0.082825206 0.069511466 -0.06037473 -0.07757611
-0.072125755 0.06154557 0.1386662 -0.09104396 -0.07312407 -0.090886496 -0.044163845 -0.031242665
-0.019880433 -0.01132485 0.07803252 0.06534848 -0.0889737 -0.030138563 -0.015288824 0.051036447
-0.08648217 -0.0069305263 0.057046544 -0.05364466 0.093884446 -0.07081351 0.067885004 0.11137309
-0.092359565 -0.05097298 0.092855886 -0.05577074 -0.07016485 0.01757848 -0.0075799366 -0.096248135
0.15001872 -0.005374962 -0.047337066 -0.06703949 0.025247311 0.094252154 0.02174969 -0.078191295
-0.048527054 0.11725431 -0.06293324 -0.012995619 0.0138114905 0.031174479 -0.032915086 0.07898713
-0.071572825 0.10754398 0.062922455 -0.06667035 0.119629525 0.08373255 -0.05893074 0.13942462
-0.069922075 0.07879559 -0.002954634 0.034955386 0.08548048 -0.010262289 -0.028536184 0.04467767
0.015758445 -0.10010759 0.05460456 -0.08983304 0.0587184 0.1029684 0.06492758 0.0027208931
0.04724064 0.03965133 0.009965471 -0.053976472 0.102077864 0.006313371 -0.0042828238 -0.058854576
0.15204102 0.0593833 -0.11581079 -0.10586896 0.08676069 -0.032469966 -0.044073246 0.11620175

StatefulPartitionedCall/sequential/conv2d_2/Conv2D_bias f4 [30]
00000000: 5307 a53c ea20 b63c 1f7c d63c cb55 41bc
00000010: a0ab 40bc 92a0 c73a 1c28 c53c 53f3 1f3d
00000020: 34b1 103c 619d 443c 7bac ac3b 6615 0c3d
00000030: 7f80 a23c e2f7 373c 3201 41bc 03ca 2ebc
00000040: 64d5 2ebc 69d2 12bc be7e 783c 2909 92bb
00000050: 876d 613d 6b6c a63c 75c2 a4bb f326 503c
00000060: 3698 9d3c 66d1 9dbc 67e7 bcbc 5317 cb3c
00000070: 7c06 ce3c a2b5 093d
0.020145094 0.022232492 0.026182232 -0.01180024 -0.011759669 0.0015230349 0.024066977 0.03905041
0.008831311 0.012000413 0.0052695847 0.034200095 0.019836662 0.011228533 -0.01178007 -0.010668281
-0.0106709935 -0.0089612985 0.015166936 -0.0044566584 0.055036094 0.02031537 -0.005028064 0.012704599
0.019237619 -0.019264888 -0.02305956 0.024791395 0.025149576 0.033620484

StatefulPartitionedCall/sequential/dense/MatMul/ReadVariableOp/transpose f4 [48, 120]
00000000: 7b3e 013e 2457 61bd 1d06 f93d b987 64bb
00000010: 712b 473d c404 3f3e e29a 04be e432 2d3d
00000020: c06b 633d e0b5 3bbe 2715 1dbc 042e 40be
00000030: ca1d 20be 9449 3d3b 9041 1cbe 0f0a 3bbd
00000040: 21b9 7b3d 1d85 54bd c84d 8abc ff2d f63d
00000050: feba 44be c460 343e f64b 36bd e8af fd3c
00000060: 1e8c 7f3c b254 c13d 47d8 b9bd e4fa 5dbe
00000070: 1f0b c23a d3f5 793d 858c 5b3e bcf2 243e
00000080: 4c04 12bb bfe8 17be 1266 4a3e e3b5 243d
00000090: 4dd6 7c3d f6b5 a53d fd46 933d 70e5 613d
000000a0: f754 43be 1ddb e63d 5cfa c13c 36ea 783d
000000b0: d674 653d 59ed 813d 25c0 0ebe 0855 2f3e
000000c0: 6c98 043e 3d3f 533e e2cf 6fbc ebcd 9bbd
000000d0: 42a9 87bc caac d03d d0ea b03d 0b33 983d
000000e0: eb01 dbbd 53bf fc3c 09ed 483e 15c2 0a3e
000000f0: 4658 7f3c d618 0abd a618 f93d 0092 dc3c
00000100: 0a4d 473c e0cf 0ebe 1420 0abe 0c44 a3bd
00000110: fb7a 95bd 7b3f acbd b812 e73d 0cbc 583d
00000120: 795e d73d d74d c83d 5ee6 113a f50d 653d
00000130: b987 593d 54b1 583d 2cda d23d 8552 a3bd
00000140: abbe 483e 9e3c 4dbd 9c8b 2cbd cf1d fd3d
00000150: 6f8f bbbd 8cb3 fe3d d149 0d3e cef1 0e3e
00000160: 481c 783c 80f2 1cbe e38e 213e 7cb4 88bd
00000170: 20d8 f5bb 9ba9 11bc 5ffc 3fbd 1a8c 0b3d
00000180: 941e bb3d 8722 313e 399a b43d f7fa 083e
00000190: 0e16 263e bd7b ef3d 8dd2 1c3e d0cf 2ebe
000001a0: 9308 b8bd cf67 6b3e f9c5 f13d 96da a73d
000001b0: 2946 233e 765a 8f3d 551d b73d 1465 453e
000001c0: 1c8c 8d3e 3452 1b3e 9609 02be 9cca d63d
000001d0: 9c32 f4bd c312 1c3e c378 4a3e 5df4 8fbd
000001e0: 7640 11be 08b6 f3bc fb70 0a3e 1ac4 94bd
000001f0: 5818 b8bd dc1f 2e3d c2c3 0bbe bc31 28be
00000200: e06a 073c e137 27be 8394 063e f8bf e63c
00000210: aefa d13d 5dfa afbd 6a8e d93d f760 183e
00000220: c988 023e e209 92bd 1cfc 36bd 374e 36be
00000230: ac77 30be 995f 063e 5cb8 00be ccf8 7c3d
00000240: 067b d53d 98d4 b1bc 7c84 623d 9b5e 133e
00000250: 48e9 233d a0ec 723d b00b 753c e4b3 013d
00000260: 400f 7fbc 4a4a d83d 30c2 76bd 5d98 0f3e
00000270: 3546 33be a1bd b7bd d2dc 12be 8a1a 923d
00000280: 0ae1 13be c0af 98bc ece0 13be 6cdb cabd
00000290: c041 08bc 6a03 ba3d 94f1 c0bd 65db 153e
000002a0: ea63 edbd 2ca7 363d a47c 48bd be66 18be
000002b0: 9bfb 393e 98e2 d1bc 4cb3 37be 488c aebd
000002c0: f474 17be 9394 99bd e87a da3c a851 16bd
000002d0: c834 2ebe c06b 6dbb 7015 1b3d bf90 a8bd
000002e0: d17a 2a3e 1ba7 063e 2eab e63d 19c3 26be
000002f0: 842c c4bd 83c9 263e 9800 abbc c084 313d
00000300: 0347 403e b7d6 99bd 95f9 0cbe e9da 13be
00000310: b4a6 723d 064d a13d d97d 2cbe dfcf dabd
00000320: c0d7 6dbb 60d2 003c 16ab 87bd e252 b13d
00000330: 4791 11be d34b 133e e502 b7bd e393 04be
00000340: a01f a4bb 27b9 26be ad28 25be 74c4 0bbe
00000350: c082 be3c f4f7 1dbe c023 32bb 1993 003e
00000360: 354a 05be cff5 f6bd d119 003e cf1c 1a3e
00000370: 822d 99bd bbbf 1c3e 5e36 be3d b90a 053e
00000380: 68e5 e1bc 2cfd 073d f9ac 153e 99c1 163e
00000390: 751e 133e 2c61 b4bd 48b4 1dbd a32d 293e
000003a0: 2f91 0c3e 245c 403d eca5 5f3d 504e dd3c
000003b0: 2c91 65bd c9c9 33be 10e4 58bd f67f 13be
000003c0: 6d66 25bd 2778 5bbe 8f3e 03bd 5a82 373e
000003d0: 4d3d f0bd d547 bbbd 3531 07be 3ab3 1b3c
000003e0: 7d3e cb3d d0a1 41bc 7616 07bd e274 203e
000003f0: 21df bfbd 41ed 5cba a10e 9c3c 023a 3ebe
0.1262149 -0.055014744 0.12159369 -0.0034870936 0.048625413 0.18654162 -0.12949708 0.04228486
0.05552268 -0.18331099 -0.009587563 -0.18767554 -0.15636364 0.0028882967 -0.15259385 -0.04566389
0.06145585 -0.05188476 -0.016882792 0.12020492 -0.19211957 0.17615038 -0.044506036 0.030967668
0.015597371 0.094399825 -0.09074455 -0.21677738 0.001480434 0.061025452 0.21440323 0.16108221
-0.0022280393 -0.1483488 0.19765499 0.040212523 0.06172781 0.08091347 0.07191274 0.05515045
-0.1907538 0.11272261 0.023678951 0.060770236 0.056019627 0.063440986 -0.13940485 0.1712228
0.1294877 0.20629592 -0.0146369655 -0.07607635 -0.0165602 0.10189207 0.08638537 0.07431611
-0.10693725 0.03085295 0.19621672 0.13550599 0.015585011 -0.03371509 0.121629044 0.026925087
0.012164364 -0.13946486 -0.134888 -0.07971963 -0.07298847 -0.084105454 0.11282867 0.05291371
0.10516066 0.09780472 0.00055656384 0.055921514 0.05310795 0.05290349 0.10295519 -0.07974724
0.19603984 -0.050106637 -0.04212533 0.12359201 -0.09158217 0.124365896 0.1379769 0.13959429
0.0151434615 -0.15326881 0.15777163 -0.0667505 -0.0075025707 -0.008890535 -0.04687154 0.034069158
0.09136692 0.17298327 0.08818478 0.13376985 0.1621935 0.11693523 0.15314694 -0.17071462
-0.089860104 0.22988819 0.118053384 0.08195989 0.15944733 0.06999676 0.089411415 0.1927684
0.27645957 0.15168077 -0.12698969 0.104878634 -0.119237155 0.15241532 0.1977263 -0.070290305
-0.14184746 -0.029749885 0.13519661 -0.07263966 -0.08989018 0.042510852 -0.13648894 -0.16425222
0.008265227 -0.1632991 0.1314259 0.02816771 0.102528915 -0.08592675 0.106228665 0.14880739
0.12747492 -0.07130791 -0.044674024 -0.17803274 -0.17233151 0.13122405 -0.12570328 0.06176071
0.104238555 -0.021707818 0.05530213 0.14391558 0.040017396 0.059307694 0.0149564 0.031665698
-0.015567601 0.105610445 -0.060243785 0.14022966 -0.1750725 -0.08971716 -0.14342049 0.07133968
-0.14441314 -0.018638492 -0.1444127 -0.09905133 -0.008316457 0.090826824 -0.09421077 0.14634474
-0.11591323 0.04459302 -0.04894699 -0.14882943 0.18162386 -0.025620744 -0.1793949 -0.0852285
-0.14790708 -0.074990414 0.026669934 -0.036698967 -0.17012322 -0.0036227554 0.03786224 -0.08230733
0.16648413 0.13149683 0.11263119 -0.16285361 -0.09578803 0.16287808 -0.020874307 0.04333949
0.18777089 -0.07511657 -0.13767083 -0.14438976 0.05924101 0.07876019 -0.16844882 -0.106841795
-0.0036291927 0.007862657 -0.06624429 0.08658387 -0.14215575 0.14384393 -0.08936099 -0.1294704
-0.005008653 -0.16281568 -0.16128798 -0.1364916 0.023255706 -0.15426618 -0.0027181953 0.12556113
-0.13016589 -0.12058603 0.12509848 0.15050052 -0.07479383 0.15307514 0.092877135 0.12992372
-0.02757521 0.033200428 0.14616765 0.14722289 0.14367087 -0.088075966 -0.038502008 0.16521315
0.13727258 0.046962872 0.054601595 0.027014881 -0.05604665 -0.17557444 -0.052951872 -0.14404282
-0.040380884 -0.21432553 -0.032042082 0.17920819 -0.11730442 -0.0914456 -0.13202365 0.00950318
0.09924028 -0.011818364 -0.032980405 0.15669587 -0.0936873 -0.00084276876 0.019049944 -0.18576816

StatefulPartitionedCall/sequential/dense/MatMul_bias f4 [48]
00000000: 6e3a 653c 0000 0000 cb7e 04bb d5d9 5e3c
00000010: 0000 0000 3f95 513d 0000 0000 4605 abbb
00000020: ef1d fa3b f7dc 213c 0e2c 8dbc 3c6b 533c
00000030: 9348 633c 11e1 3bbc 2247 eabb 408e af3b
00000040: f3d4 48bc 81c8 bb3c 4273 af3c 97f0 3c3b
00000050: 0000 0000 04fc 093d de73 83bc 0000 0000
00000060: fcef 98bc cb52 58bc 5490 39bc 0000 0000
00000070: a1d6 ecbb 33e8 ffbb 0000 0000 80a7 633c
00000080: 693b c9bb 0a33 ba3c 11f9 953b 55ff 7f3c
00000090: 0000 0000 9e31 5c3c 7be5 4e3b dc18 22bc
000000a0: b596 05bc 9124 84bc 0000 0000 81e6 72bc
000000b0: 3ec2 75bc 7e0c ccb8 9d65 483b 5a64 813c
0.0139909815 0.0 -0.0020217176 0.01360174 0.0 0.051167723 0.0 -0.0052191345
0.007632963 0.009879342 -0.017232921 0.012903985 0.0138722835 -0.011467234 -0.007149593 0.0053575337
-0.012257802 0.022922756 0.021417264 0.0028829926 0.0 0.033687606 -0.01604646 0.0
-0.018669121 -0.013203333 -0.011325914 0.0 -0.007227734 -0.0078096627 0.0 0.013894916
-0.0061411154 0.022729415 0.00457681 0.015624841 0.0 0.013439564 0.0031569886 -0.009893622
-0.008153607 -0.016130717 0.0 -0.014825464 -0.014999924 -9.729805e-05 0.0030578144 0.015794922

StatefulPartitionedCall/sequential/dense_1/MatMul/ReadVariableOp/transpose f4 [2, 48]
00000000: e3b6 f53d 4060 a7bd 55a8 a8be 86a9 0f3c
00000010: 1a13 133e a342 cc3e 9c51 453e 8a75 a4be
00000020: 0e63 5b3e 6698 a7be 5b85 953e 76ad 16bd
00000030: 68b1 103c 7a2d c1be ec72 b1be ce5b 20be
00000040: 8a2e 5c3e e02e 273d 10a0 083e a021 82be
00000050: 3253 27be ab49 d7be 28db a1be 8cb1 463e
00000060: df6a 65be 5196 e5bb d544 a9be f0b9 913e
00000070: 6bb9 96be f711 603e 0082 da3a f36b 0a3d
00000080: 5787 a0be d4ea 6cbd 3cbd 96be c68f c33e
00000090: c2da 9e3e 7559 a73e a7d6 a5be 69df 833e
000000a0: e3d9 57bc 65f4 b7be 446d 79be 9e0a 20be
000000b0: fca3 36be b567 0fbe 8844 0dbe fbb8 233e
000000c0: e777 0abe 3d11 a7be 4371 a13e a60e 6cbe
000000d0: a843 afbd 839f 043e 6200 993e 6664 7bbe
000000e0: 7875 d83e 5ff4 1a3c 0711 b13d 7ba9 59be
000000f0: 86f9 66be 7649 a13d 8870 953d 58c3 443e
00000100: 0a22 923e 67c6 7cbe b600 38bd a95a b03e
00000110: f0ab c4bd 581b 6ebe 8870 493e bc4e 2d3e
00000120: 7bef 08be c5bc a33e 5749 833e e4b4 263e
00000130: 72c2 a13e 9f96 7f3e 6e3e a93e b793 52be
00000140: bd5c a13e 2349 4e3e 413f bebe c388 d0be
00000150: 60f6 903e 4062 323e 1259 0b3e 2953 a43e
00000160: dbdb 8a3e 742f 82be 50bf ce3d cad9 a93e
00000170: ee4e 223d c590 343e d146 93bb 13a0 563e
0.119977735 -0.08172655 -0.32940927 0.008768445 0.14362755 0.3989459 0.19269413 -0.32120925
0.21424505 -0.32733458 0.29203305 -0.03678652 0.008831359 -0.37730008 -0.3465799 -0.1566002
0.21502128 0.040816188 0.13342309 -0.2541628 -0.1634033 -0.42048392 -0.31612515 0.19403666
-0.2240405 -0.0070064445 -0.33060327 0.28462172 -0.29438338 0.21881853 0.0016670823 0.033794355
-0.31353256 -0.057841137 -0.2944125 0.38195628 0.31026274 0.32685438 -0.3239033 0.25756386
-0.013174507 -0.35928646 -0.24358088 -0.1562905 -0.17835993 -0.14004405 -0.13795674 0.15988533
-0.13522302 -0.3263034 0.31531724 -0.23052463 -0.08557826 0.12951474 0.29883105 -0.24550018
0.42277122 0.009457677 0.08645826 -0.21256058 -0.22556123 0.0787534 0.07296854 0.19215143
0.28541595 -0.2468506 -0.044922553 0.34444168 -0.09603107 -0.23252618 0.19671834 0.16924566
-0.13372605 0.31979957 0.2564189 0.16279942 0.31593663 0.24959801 0.33055443 -0.20564161
0.31516066 0.20145087 -0.37157634 -0.4072934 0.2831297 0.17420292 0.13608196 0.32094696
0.2712086 -0.2542683 0.10095084 0.33173972 0.039626054 0.1763335 -0.004494526 0.20959501

StatefulPartitionedCall/sequential/dense_1/MatMul_bias f4 [2]
00000000: f24f 703c e54f 70bc
0.014667498 -0.014667486
