model.tflite (tflite, 88560 bytes, 14 tensors)

StatefulPartitionedCall/sequential_1/batch_normalization_2/FusedBatchNormV3_add_param f4 [16]
-0.76384056 0.20099035 -1.0316339 -2.8071423 -0.005803938 -0.4253251 -0.39992946 0.0017930837
0.022134287 -1.4425117 -0.6476944 -0.15145004 -0.03473574 -2.4713109 0.14820461 -1.3468719
00000000: 0e8b 43bf 6ad0 4d3e 940c 84bf 38a8 33c0
00000010: f62e bebb 36c4 d9be 8ec3 ccbe e805 eb3a
00000020: f752 b53c 39a4 b8bf 4dcf 25bf b815 1bbe
00000030: 1047 0ebd f529 1ec0 f3c2 173e 4c66 acbf

StatefulPartitionedCall/sequential_1/batch_normalization_2/FusedBatchNormV3_mul_0_param f4 [16]
0.078066885 31.078367 0.209058 0.45221516 30.56966 0.6230405 0.026289448 14.597839
28.960379 0.591989 0.10302757 0.9637681 13.844041 0.4856239 33.25855 0.1848116
00000000: 88e1 9f3d 7fa0 f841 4d13 563e bf88 e73e
00000010: aa8e f441 957f 1f3f f85c d73c c090 6941
00000020: dbae e741 978c 173f 1e00 d33d 82b9 763f
00000030: 3181 5d41 b2a3 f83e c108 0542 413f 3d3e

StatefulPartitionedCall/sequential_1/batch_normalization_3/FusedBatchNormV3_add_param f4 [20]
-0.6387155 -0.4011032 -0.5546824 -0.23361091 -0.4628831 -0.5645339 -0.48457137 -0.015599683
-0.6496243 -0.9370825 -0.2973432 -0.61361235 -0.45320758 -0.12697177 -0.64984435 -0.65243727
-1.1686425 -0.3024274 -0.39066216 -0.77215266
00000000: dc82 23bf 665d cdbe aaff 0dbf b337 6fbe
00000010: 04ff ecbe 4b85 10bf bd19 f8be d095 7fbc
00000020: c74d 26bf a4e4 6fbf 5e3d 98be b315 1dbf
00000030: d30a e8be e304 02be 335c 26bf 2106 27bf
00000040: 1496 95bf c4d7 9abe df04 c8be ccab 45bf

StatefulPartitionedCall/sequential_1/batch_normalization_3/FusedBatchNormV3_mul_0_param f4 [20]
0.14592606 0.23972042 0.26944208 0.13019659 0.18916775 0.1837935 0.2968889 0.23966151
0.22738147 0.13669121 0.35287556 0.17394133 0.30914417 0.1594671 0.16295712 0.13689719
0.15745568 0.039040003 0.17686708 0.21885094
00000000: a46d 153e 4579 753e 50f4 893e 4152 053e
00000010: 31b5 413e 5d34 3c3e d201 983e d469 753e
00000020: b0d6 683e c8f8 0b3e 1bac b43e ad1d 323e
00000030: 2548 9e3e 584b 233e 3bde 263e c72e 0c3e
00000040: 103c 213e 69e8 1f3d a51c 353e 761a 603e

StatefulPartitionedCall/sequential_1/conv2d_3/Conv2D/ReadVariableOp f4 [16, 11, 11, 3]
-0.08078021 -0.1965467 -0.22719918 -0.018774359 -0.015017094 -0.11277958 -0.12297524 -0.12750061
-0.22833502 -0.14433593 -0.20830794 -0.24125093 -0.26517686 -0.3191949 -0.32032943 -0.26488504
-0.20602164 -0.33848503 -0.15187666 -0.17143449 -0.27469006 -0.06472899 -0.10806684 -0.16447388
-0.11353206 -0.082664005 -0.1767907 -0.12950854 -0.05950238 -0.16110528 -0.17186394 -0.121678166
-0.1755969 0.06298536 0.09712004 -0.018195318 0.10806602 0.07891355 -0.0027091226 0.07613858
0.0003427553 -0.115044594 -0.031352945 -0.10073984 -0.16033752 -0.272829 -0.29486895 -0.291571
-0.16940889 -0.13704675 -0.24896276 -0.18975092 -0.088669166 -0.17387922 -0.06420236 -0.06133793
-0.13856602 -0.026767228 -0.019281087 -0.13089113 -0.07420567 -0.020497788 -0.07356913 -0.041655432
-0.03413545 -0.110037066 0.25098476 0.2415075 0.07212992 0.22665147 0.21413131 0.056613933
0.14943367 0.16523993 0.06962436 0.10718503 0.05236783 -0.044527035 -0.1981324 -0.18073168
-0.20627835 -0.06709086 -0.085441306 -0.13463342 -0.10027053 -0.024962159 -0.14655381 -0.106081724
-0.111681156 -0.15405391 -0.044004403 -0.081840195 -0.11195459 0.009277042 0.049013767 -0.08146092
0.04994637 0.04203469 -0.070913196 0.35192996 0.28447706 0.19378337 0.34520596 0.28556058
0.15286481 0.2105531 0.20458865 0.109033026 0.06256824 0.06704784 -0.021237792 -0.12530287
-0.12015757 -0.19016466 -0.12364459 -0.09478351 -0.13723975 -0.0808931 -0.13035028 -0.1491169
-0.15532918 -0.10379544 -0.20352834 -0.11858318 -0.05835516 -0.111584425 0.020242518 -0.041821726
-0.035083022 -0.020897489 -0.051944878 -0.1129356 0.51911443 0.43633243 0.29102725 0.41259617
0.31649253 0.25405914 0.46640456 0.35174116 0.28679448 0.44154713 0.33591914 0.27874282
0.22981335 0.09289798 0.20582405 0.09150993 -0.026331855 0.07303839 0.06239219 0.03446502
0.08975391 0.07157545 -0.059497975 -0.016464265 -0.047634747 -0.1214655 -0.15301128 -0.023388525
-0.100512914 -0.048224296 -0.10190882 -0.20732982 -0.15094073 0.26264596 0.101365775 0.07782293
0.23215596 0.16558138 0.11271183 0.30181915 0.17717409 0.2192447 0.21977271 0.10964129
0.21119039 0.29890642 0.2173038 0.27757162 0.18630293 0.067715205 0.10637598 0.15555182
0.05655155 0.16370626 0.042406328 -0.011436266 0.015758447 -0.14059095 -0.22183506 -0.15875465
-0.12047373 -0.28643766 -0.18775198 -0.21185651 -0.3820879 -0.36100158 0.13622482 -0.0474104
-0.027094493 0.25659773 0.11405167 0.11867812 0.3107987 0.25728226 0.26994902 0.30594707
0.17547375 0.268701 0.33833483 0.23956478 0.32647875 0.2744111 0.15198219 0.31245333
0.19489525 0.11560004 0.17920165 0.1105439 0.040595356 0.1341949 -0.1288316 -0.23093146
-0.12975395 -0.24520873 -0.44116887 -0.26205772 -0.24830124 -0.39096457 -0.34114352 0.110669695
-0.08664297 -0.011258731 0.26410076 0.08026871 0.16200414 0.31988978 0.17440283 0.18815129
0.2696373 0.124433 0.21776521 0.39406496 0.21422943 0.34856167 0.47529122 0.38353062
0.3883263 0.51171666 0.35895944 0.38145012 0.4046823 0.3401287 0.32494873 0.07885249
00000000: 1870 a5bd 8a43 49be e7a6 68be afcc 99bc
00000010: 420a 76bc fbf8 e6bd 71da fbbd 858f 02be
00000020: a8d0 69be cccc 13be ad4e 55be 7c0a 77be
00000030: 43c5 87be 846d a3be 3802 a4be 039f 87be
00000040: 56f7 52be e94d adbe 8e85 1bbe 868c 2fbe
00000050: 2da4 8cbe a290 84bd 2652 ddbd d76b 28be
00000060: 7f83 e8bd bf4b a9bd 9f08 35be e39d 04be
00000070: c5b8 73bd c8f8 24be 1afd 2fbe 6732 f9bd
00000080: accf 33be 78fe 803d dfe6 c63d 590e 95bc
00000090: b851 dd3d 6d9d a13d 898b 31bb 8bee 9b3d
000000a0: d6b3 b339 809c ebbd f26b 00bd b050 cebd
000000b0: 852f 24be 3eb0 8bbe 10f9 96be cb48 95be
000000c0: 8679 2dbe fc55 0cbe 18f0 7ebe 114e 42be
000000d0: 2e98 b5bd 650d 32be 877c 83bd 7b3d 7bbd
000000e0: 40e4 0dbe f246 dbbc 5ff3 9dbc 5308 06be
000000f0: 24f9 97bd faea a7bc 69ab 96bd e39e 2abd
00000100: 9dd1 0bbd 1d5b e1bd 1381 803e be4d 773e
00000110: dab8 933d 5317 683e 3d45 5b3e 03e4 673d
00000120: 2405 193e a834 293e 3797 8e3d d383 db3d
00000130: a67f 563d fb61 36bd 38e3 4abe ba11 39be
00000140: a23a 53be ef66 89bd dafb aebd 58dd 09be
00000150: a35a cdbd 717d ccbc 3412 16be 6041 d9bd
00000160: 17b9 e4bd 4fc0 1dbe f63d 34bd d59b a7bd
00000170: 7348 e5bd bcfe 173c a9c2 483d fcd4 a6bd
00000180: 9194 4c3d 912c 2c3d f03a 91bd 2a30 b43e
00000190: faa6 913e 266f 463e d6be b03e ff34 923e
000001a0: 9888 1c3e 3b9b 573e b07f 513e b54c df3d
000001b0: c723 803d 6150 893d e1fa adbc 654f 00be
000001c0: 2c15 f6bd 86ba 42be 6039 fdbd db1d c2bd
000001d0: 9488 0cbe 48ab a5bd 8b7a 05be 1ab2 18be
000001e0: 9d0e 1fbe b492 d4bd bc69 50be bddb f2bd
000001f0: d205 6fbd 6086 e4bd a3d3 a53c 424d 2bbd
00000200: 37b3 0fbd 3631 abbc 27c4 54bd c84a e7bd
00000210: afe4 043f f766 df3e 8601 953e ce3f d33e
00000220: 4f0b a23e 0a14 823e 94cc ee3e 6b17 b43e
00000230: bad6 923e 7712 e23e 98fd ab3e 61b7 8e3e
00000240: 3154 6b3e 4c41 be3d 8ac3 523e 8f69 bb3d
00000250: e7b5 d7bc 2795 953d f48e 7f3d 312b 0d3d
00000260: e6d0 b73d 2696 923d 26b4 73bd 11e0 86bc
00000270: a71c 43bd e7c2 f8bd fdae 1cbe 4b99 bfbc
00000280: b7d9 cdbd d786 45bd 92b5 d0bd 454e 54be
00000290: 3590 1abe 8879 863e dc98 cf3d a161 9f3d
000002a0: 4bba 6d3e 2a8e 293e 76d5 e63d 0a88 9a3e
000002b0: 206d 353e af81 603e 190c 613e 9d8b e03d
000002c0: 4b42 583e 430a 993e e384 5e3e de1d 8e3e
000002d0: 32c6 3e3e 45ae 8a3d a6db d93d fa48 1f3e
000002e0: 99a2 673d 9da2 273e 42b2 2d3d 2d5f 3bbc
000002f0: dc17 813c 13f7 0fbe bb28 63be 9490 22be
00000300: eeba f6bd f5a7 92be 0e42 40be eaf0 58be
00000310: 06a1 c3be 33d5 b8be 857e 0b3e 6831 42bd
00000320: 45f5 ddbc c760 833e ec93 e93d 840d f33d
00000330: 0221 9f3e 80ba 833e c236 8a3e 18a5 9c3e
00000340: 64af 333e 2d93 893e 393a ad3e 7850 753e
00000350: 3928 a73e 9d7f 8c3e 38a1 1b3e e2f9 9f3e
00000360: 9f92 473e b7bf ec3d a380 373e d764 e23d
00000370: 5147 263d 636a 093e 6eec 03be 4c79 6cbe
00000380: 38de 04be ff17 7bbe e3e0 e1be 6e2c 86be
00000390: ae42 7ebe 822c c8be 5daa aebe cba6 e23d
000003a0: df71 b1bd 8a76 38bc 3738 873e ec63 a43d
000003b0: 6ae4 253e 98c8 a33e a896 323e bbaa 403e
000003c0: e60d 8a3e bbd6 fe3d d8fd 5e3e e2c2 c93e
000003d0: f65e 5b3e ad76 b23e 5f59 f33e 205e c43e
000003e0: b4d2 c63e ddff 023f 88c9 b73e 6e4d c33e
000003f0: 8532 cf3e 5925 ae3e ae5f a63e 6a7d a13d

StatefulPartitionedCall/sequential_1/conv2d_3/Conv2D_bias f4 [16]
-0.21160635 -0.03619056 0.048549924 0.6246726 -0.008838789 0.8226454 0.2471346 0.12097155
-0.021197308 0.68691176 0.5986014 0.5721652 0.12636226 1.288361 -0.019765543 0.6461231
00000000: 56af 58be 8d3c 14bd 49dc 463d 8bea 1f3f
00000010: 91d0 10bc e498 523f da10 7d3e efbf f73d
00000020: faa5 adbc 73d9 2f3f f13d 193f 6b79 123f
00000030: 1c65 013e 03e9 a43f 59eb a1bc 5368 253f

StatefulPartitionedCall/sequential_1/conv2d_4/Conv2D/ReadVariableOp f4 [20, 5, 5, 16]
-0.22083724 -0.07666622 -0.2552647 -0.15618436 0.011446688 0.046676774 -0.15454818 0.51507705
0.0074437256 -0.1303531 -0.243895 0.24313238 0.014234145 -0.101435825 0.26926437 -0.24557228
-0.1921916 -0.028306196 -0.30785382 -0.24845321 0.16242439 0.04797295 -0.23023464 0.33712527
0.013093975 -0.13031855 -0.21966647 0.17989187 0.068373285 -0.06767113 -0.024632102 -0.29191893
-0.013341899 0.092069164 -0.23221903 0.19471622 0.0350102 -0.20780058 -0.16903853 0.17450918
-0.23507883 0.04190267 -0.006853786 0.17339113 -0.060987815 0.03241719 -0.20626988 0.17656349
0.13816178 -0.006234367 0.08816294 0.36889303 0.1422486 -0.23026323 0.11387384 -0.021528173
-0.15579958 0.1379448 0.19685555 0.26108903 -0.101641625 0.16236536 0.08765434 0.39747855
0.27452195 0.046871975 0.19994934 0.5800952 0.054776173 -0.08022817 0.20431514 0.06709403
-0.117940105 0.2715211 0.3046919 0.20250395 0.35772353 0.47687188 -0.08049222 0.70270485
-0.33856255 -0.053561386 -0.5000213 -0.12871145 0.14878117 -0.72338086 -0.21516676 0.15662356
0.09210251 0.103120595 -0.56248087 0.3417618 -0.11739811 -0.29106674 0.17225964 -0.27417397
-0.23355813 -0.02890752 -0.29560608 -0.10692161 0.06917351 -0.25983977 -0.19055894 0.016584279
0.08097482 -0.1165307 -0.39366916 0.15358569 -0.04065976 -0.32200986 -0.15835422 -0.16622287
0.04901515 0.03297459 -0.14874181 0.1619835 -0.04616579 -0.17397274 0.03488176 0.15483661
-0.111947596 0.25049755 -0.03781344 -0.26699743 -0.21561587 0.15003514 0.04422289 0.44230577
0.13143158 0.02864376 0.30964136 0.41565236 0.03549253 0.09290661 0.23486036 -0.025900366
-0.06332841 0.17684345 0.39281508 -0.13091597 -0.10716827 0.44950044 0.21131818 0.5838954
0.28271133 0.042768672 0.26238203 0.7152064 0.122141264 -0.21989371 0.08496732 0.12794805
-0.023853969 -0.031499375 0.48170924 -0.26423553 -0.09552644 0.5752632 0.09472388 0.6476594
-0.19748566 -0.04611373 -0.37389338 -0.047585778 0.10795324 0.014793072 -0.15636058 0.31740722
0.04271644 0.12628998 -0.48920372 0.29810137 -0.0003387099 -0.38895532 0.15245835 -0.22259387
-0.04939839 0.070988536 -0.29141384 -0.1284049 0.037337102 0.25018713 -0.008018725 0.09663758
-0.07212661 -0.16675286 -0.20157786 0.20975685 -0.10777843 -0.32522008 -0.13230385 -0.28202224
0.26686275 0.13403364 0.05046345 0.0032335885 -0.002416033 0.24599445 -0.011110084 0.11355509
-0.15113051 -0.12364637 0.10780399 0.044992443 0.05531938 0.026258543 0.12456926 0.20495395
0.18860167 0.1148429 0.3075202 0.17697692 0.074152194 0.32953605 0.14916341 0.15281644
-0.17455909 0.055727143 0.36520565 0.46128848 0.037420187 0.37817928 -0.06019116 0.30545223
-0.018394804 -0.011725079 0.36340335 0.1305016 -0.046876855 0.25302148 0.1719534 0.120249845
-0.16852513 -0.3022363 0.22513226 0.2395318 0.14061022 0.52025265 -0.0032467805 0.29147446
-0.39525548 -0.13167994 -0.51495856 -0.18732567 -0.08197381 -0.54495716 -0.16584536 0.3886764
-0.041953307 0.052849438 -0.6112528 0.40152672 0.0064201434 -0.42735544 0.06512393 -0.4443265
00000000: 2823 62be 2e03 9dbd 0eb2 82be cbee 1fbe
00000010: e48a 3b3c 2530 3f3d e141 1ebe 17dc 033f
00000020: 7fea f33b 487b 05be 9cbf 79be b2f7 783e
00000030: 5536 693c 96bd cfbd 05dd 893e 4d77 7bbe
00000040: e0cd 44be 65e2 e7bc 049f 9dbe 856a 7ebe
00000050: 9452 263e 497f 443d a1c2 6bbe af9b ac3e
00000060: 1d88 563c 3a72 05be 3ff0 60be 9335 383e
00000070: 4b07 8c3d 2997 8abd 43c9 c9bc 6676 95be
00000080: fb97 5abc c28e bc3d d3ca 6dbe b063 473e
00000090: db66 0f3d adc9 54be 7018 2dbe 89b2 323e
000000a0: 81b8 70be 22a2 2b3d b995 e0bb 728d 313e
000000b0: 5cce 79bd e3c7 043d 6938 53be 0fcd 343e
000000c0: 487a 0d3e a949 ccbb c68e b43d 8cdf bc3e
000000d0: 9ea9 113e 20ca 6bbe b036 e93d da5b b0bc
000000e0: ed89 1fbe 6741 0d3e 8094 493e 76ad 853e
000000f0: 7c29 d0bd 1b43 263e 1e84 b33d 4f82 cb3e
00000100: 248e 8c3e d4fc 3f3d 85bf 4c3e 1e81 143f
00000110: fb5c 603d ab4e a4bd fd37 513e 9868 893d
00000120: 958a f1bd d004 8b3e 9400 9c3e 325d 4f3e
00000130: 8a27 b73e 8d28 f43e 1bd9 a4bd 77e4 333f
00000140: 1258 adbe 2f63 5bbd 6501 00bf efcc 03be
00000150: 175a 183e 7d2f 39bf ad54 5cbe ed61 203e
00000160: 3ea0 bc3d e430 d33d bffe 0fbf 67fb ae3e
00000170: 6c6e f0bd b306 95be d564 303e 8860 8cbe
00000180: dd29 6fbe 77cf ecbc ae59 97be b8f9 dabd
00000190: d7aa 8d3d b809 85be e221 43be c1db 873c
000001a0: 20d6 a53d a6a7 eebd 018f c9be 9145 1d3e
000001b0: d98a 26bd 7ade a4be 9c27 22be 5436 2abe
000001c0: 1cc4 483d 5d10 073d c64f 18be 01df 253e
000001d0: 5718 3dbd e925 32be 2de0 0e3d 7d8d 1e3e
000001e0: c844 e5bd 3741 803e 44e2 1abd e3b3 88be
000001f0: 68ca 5cbe d0a2 193e 1023 353d e775 e23e
00000200: 0096 063e 52a6 ea3c 5089 9e3e 63d0 d43e
00000210: 9d60 113d d245 be3d 3c7f 703e 012d d4bc
00000220: 53b2 81bd 7316 353e 0f1f c93e d60e 06be
00000230: 0a7b dbbd ec24 e63e cb63 583e 2b7a 153f
00000240: 8abf 903e 342e 2f3d f056 863e c417 373f
00000250: 3325 fa3d d12b 61be 5903 ae3d d004 033e
00000260: 6669 c3bc 7d05 01bd 98a2 f63e e149 87be
00000270: 5ea3 c3bd 7344 133f 98fe c13d 02cd 253f
00000280: ae39 4abe c0e1 3cbd f46e bfbe 4ee9 42bd
00000290: 9716 dd3d a45e 723c fd1c 20be 3383 a23e
000002a0: 6ff7 2e3d 2952 013e e978 fabe bea0 983e
000002b0: e094 b1b9 2725 c7be 0b1e 1c3e a6ef 63be
000002c0: f755 4abd 7062 913d 3234 95be 937c 03be
000002d0: caee 183d 8718 803e f860 03bc ece9 c53d
000002e0: 1eb7 93bd 43c1 2abe 6d6a 4ebe 80ca 563e
000002f0: f0ba dcbd 3f83 a6be a97a 07be 3865 90be
00000300: 3ca2 883e 1d40 093e c3b2 4e3d 9dea 533b
00000310: 4f56 1ebb f8e5 7b3e 1207 36bc 928f e83d
00000320: f5c1 1abe 4f3a fdbd 57c8 dc3d ff49 383d
00000330: 9396 623d 281c d73c 2b1e ff3d 73df 513e
00000340: cc20 413e c132 eb3d 4a73 9d3e 7039 353e
00000350: 1bdd 973d f3b8 a83e 4bbe 183e ea7b 1c3e
00000360: 9ebf 32be 2542 643d 3cfc ba3e 012e ec3e
00000370: e945 193d b7a0 c13e 018b 76bd 3c64 9c3e
00000380: b3b0 96bc 8c1a 40bc 0110 ba3e 36a2 053e
00000390: f201 40bd 088c 813e 8d14 303e 8d45 f63d
000003a0: da91 2cbe b7be 9abe 1289 663e d347 753e
000003b0: 20fc 0f3e 472f 053f f0c7 54bb 243c 953e
000003c0: ed5e cabe 1bd7 06be 53d4 03bf 4dd2 3fbe
000003d0: e3e1 a7bd 5082 0bbf 5ed3 29be 9800 c73e
000003e0: 3bd7 2bbd a778 583d 107b 1cbf e994 cd3e
000003f0: 1160 d23b 55ce dabe b25f 853d c37e e3be

StatefulPartitionedCall/sequential_1/conv2d_4/Conv2D_bias f4 [20]
0.1889469 -0.19982891 -0.039579876 -0.14716844 0.013744867 0.23356986 0.11365664 -0.7653636
0.4714642 0.47799087 -0.40958303 0.08242741 -0.106689 -0.4905097 -0.047707777 0.06384512
0.73550683 -0.6412175 -0.118934 0.2656612
00000000: 4c7b 413e f39f 4cbe 821e 22bd 53b3 16be
00000010: 2732 613c f02c 6f3e d0c4 e83d deee 43bf
00000020: c163 f13e 38bb f43e deb4 d1be b4cf a83d
00000030: c37f dabd 1624 fbbe 3b69 43bd 3bc1 823d
00000040: 2d4a 3c3f d526 24bf ab93 f3bd bf04 883e

StatefulPartitionedCall/sequential_1/conv2d_5/Conv2D/ReadVariableOp f4 [30, 3, 3, 20]
0.2723651 0.2167432 -0.25267673 0.33351457 0.06428642 -0.47954255 -0.33355436 0.0008063365
-0.37519953 0.24575685 0.43512154 0.13323429 0.16087279 0.038695674 -0.18532944 0.25405693
-0.2344687 0.29450992 0.1538446 -0.06450967 0.13579252 0.0012156336 -0.6629951 0.3436209
-0.0031283966 -0.019986834 -0.36603683 0.165848 -0.27490848 0.21275036 -0.2919453 -0.12690324
0.2203652 0.041422535 -0.14970134 0.22093466 0.0002660011 0.20779534 0.0423773 -0.019228796
0.4156048 -0.003438311 -0.027957175 0.24372903 -0.16456443 -0.08978874 -0.032430224 0.006596696
-0.36595422 0.19003336 -0.7140472 0.30400324 -0.5718024 0.120497346 0.035039496 0.4083982
-0.050015036 0.24849474 -0.04568171 0.22789581 0.04352738 -0.15496533 -0.0728573 0.119787246
-0.019445425 -0.2899203 -0.13740377 0.04429497 0.17345394 -0.4281205 0.21067618 -0.08249452
-0.015897404 -0.007867559 -0.3261428 0.2049269 0.105295226 -0.01626537 -0.0473913 0.28189954
-0.07728939 -0.098062865 -0.55192685 -0.10975078 -0.03257368 -0.24440466 -0.3248909 -0.24775968
-0.4893271 -0.2520338 -0.18986858 -0.08638121 -0.12491211 -0.10369314 0.047320053 -0.013769322
-0.21911588 0.09346378 -0.035087578 0.1402039 0.19707145 -0.2564198 -0.3585348 -0.1055178
0.07339797 -0.14825672 -0.10850562 -0.22143619 -0.44291225 -0.5285856 -0.7273072 0.061155405
-0.6062247 0.0779989 0.040678214 -0.1862043 -0.0947783 0.03609872 0.18132381 -0.31352034
0.14775114 -0.10736063 0.46074376 0.15464172 0.4326939 -0.3641476 0.2780545 0.040847123
0.38276014 0.4056441 0.16449308 -0.08452486 0.119599774 -0.05905573 0.03384003 0.3209945
0.019833134 0.044272978 -0.011114723 0.27136394 -0.34247544 -0.21409349 -0.12967713 0.026336037
0.32989028 -0.09254311 -0.010602562 -0.192919 0.0647998 0.5190378 0.05123231 0.084690414
-0.07016154 0.12760645 0.17076296 -0.0754459 -0.002947088 0.26682347 0.21621858 -0.11163326
-0.024057081 -0.28889975 -0.028022254 -0.0012624478 0.18473169 0.11064442 0.52639157 0.10206397
0.1585686 0.40358135 0.028429184 0.079255566 -0.32764974 0.03650402 0.15136586 0.016661888
0.24446516 -0.0070613697 0.456345 -0.1378599 -0.1729039 -0.21496333 0.32698315 0.08340074
0.10140833 -0.12806682 -0.080727585 -0.6894922 -0.024007356 -0.3751972 0.019685404 -0.30897954
-0.6864808 -0.069910444 0.13464157 0.05433575 -0.017949251 -0.14610428 -0.36041132 -0.3338975
-0.08134354 -0.039276697 0.20884249 -0.107879646 0.19120704 0.33742285 0.05014337 -0.6507122
-0.26663643 0.048089225 0.0068264203 -0.11235953 -0.35575008 0.17176855 -0.261272 -0.068290904
0.34359968 0.1521071 -0.23206963 0.113040775 0.32480487 -0.115271665 -0.32818106 -0.006080305
0.89656305 0.4367798 -0.29132065 -0.40636057 -0.33498633 0.11768099 0.04554617 -0.29812887
0.26178503 0.30828652 -0.2634785 0.047851022 0.12398937 0.39127257 -0.157172 -0.11552738
0.06886017 0.017638994 -0.061443005 -0.2626075 -0.069010265 0.005527407 -0.35424116 -0.3516043
0.13165253 0.34037873 -0.31123456 -0.23057589 -0.16277383 -0.26386815 0.21765731 0.76826775
00000000: 7073 8b3e eef1 5d3e d85e 81be 6cc2 aa3e
00000010: 99a8 833d 9a86 f5be a3c7 aabe 5460 533a
00000020: 271a c0be afa7 7b3e 40c8 de3e 926e 083e
00000030: d6bb 243e 5b7f 1e3d 00c7 3dbe c013 823e
00000040: 9018 70be 01ca 963e 7089 1d3e a51d 84bd
00000050: 320d 0b3e e555 9f3a 0cba 29bf 14ef af3e
00000060: c905 4dbb 6ebb a3bc 2e69 bbbe 0fd4 293e
00000070: cec0 8cbe 3bdb 593e db79 95be ecf2 01be
00000080: 6aa7 613e adaa 293d 4f4b 19be b23c 623e
00000090: 1076 8b39 4dc8 543e d293 2d3d b585 9dbc
000000a0: 27ca d43e 4955 61bb 7206 e5bc 1a94 793e
000000b0: 9483 28be 29e3 b7bd 8ed5 04bd 1929 d83b
000000c0: 5a5e bbbe 1b98 423e cccb 36bf 50a6 9b3e
000000d0: a461 12bf 50c7 f63d 9385 0f3d 9219 d13e
000000e0: 91dc 4cbd 6875 7e3e bf1c 3bbd 855d 693e
000000f0: c449 323d 3baf 1ebe 3536 95bd 0453 f53d
00000100: 034c 9fbc 6f70 94be 93b3 0cbe a46e 353d
00000110: e99d 313e 9c32 dbbe 7fbb 573e e3f2 a8bd
00000120: 463b 82bc efe6 00bc 30fc a6be 5bd8 513e
00000130: 06a5 d73d f43e 85bc 611d 42bd 2355 903e
00000140: e649 9ebd 2fd5 c8bd 144b 0dbf 04c5 e0bd
00000150: fb6b 05bd 3745 7abe 1a58 a6be b7b4 7dbe
00000160: 1589 fabe 930a 81be e96c 42be a2e8 b0bd
00000170: ecd1 ffbd 125d d4bd acd2 413d b998 61bc
00000180: ea5f 60be f069 bf3d feb7 0fbd 9c91 0f3e
00000190: 19cd 493e 7549 83be e091 b7be b719 d8bd
000001a0: ad51 963d 9cd0 17be 3238 debd 2bc0 62be
000001b0: 65c5 e2be 6351 07bf ce30 3abf 177e 7a3d
000001c0: 8b31 1bbf e3bd 9f3d 339e 263d 57ac 3ebe
000001d0: 201b c2bd 40dc 133d f3ac 393e bd85 a0be
000001e0: 134c 173e e4df dbbd 9be6 eb3e 665a 1e3e
000001f0: 0e8a dd3e 8e71 babe 295d 8e3e 504f 273d
00000200: 23f9 c33e 95b0 cf3e e070 283e 5f1b adbd
00000210: baf0 f43d 6ce4 71bd d89b 0a3d 6459 a43e
00000220: 1979 a23c 9557 353d 871a 36bc 37f0 8a3e
00000230: f158 afbe 533b 5bbe 15ca 04be acbe d73c
00000240: 61e7 a83e 3e87 bdbd 5eb6 2dbc 8f8c 45be
00000250: c2b5 843d a9df 043f f8d8 513d 2b72 ad3d
00000260: dab0 8fbd 44ab 023e 7cdc 2e3e 6183 9abd
00000270: ef23 41bb 169d 883e 6768 5d3e fb9f e4bd
00000280: 5b13 c5bc abea 93be ed8e e5bc b878 a5ba
00000290: 4e2a 3d3e 8b99 e23d 99c1 063f ea06 d13d
000002a0: cf5f 223e 37a2 ce3e 52e4 e83c be50 a23d
000002b0: b5c1 a7be 3d85 153d a7ff 1a3e 837e 883c
000002c0: 1355 7a3e 1063 e7bb 0da6 e93e 252b 0dbe
000002d0: b80d 31be 591f 5cbe 566a a73e 02ce aa3d
000002e0: 2caf cf3d f323 03be 8154 a5bd 9082 30bf
000002f0: 13ab c4bc d919 c0be 4943 a13c 9132 9ebe
00000300: 35bd 2fbf 352d 8fbd 7bdf 093e 2a8f 5e3d
00000310: 4f0a 93bc 5c9c 15be d587 b8be 9df4 aabe
00000320: 7197 a6bd 9ae0 20bd ceda 553e 01f0 dcbd
00000330: c7cb 433e b0c2 ac3e 2263 4d3d 1395 26bf
00000340: 9284 88be 35f9 443d 2ab0 df3b c11c e6bd
00000350: e024 b6be 18e4 2f3e 72c5 85be 1adc 8bbd
00000360: 4cec af3e f7c1 1b3e a9a3 6dbe ec81 e73d
00000370: d34c a63e 8d13 ecbd 5907 a8be 4c3d c7bb
00000380: 2885 653f 9aa1 df3e fb27 95be 7e0e d0be
00000390: 5483 abbe bb02 f13d 9f8e 3a3d 59a4 98be
000003a0: b008 863e bbd7 9d3e a7e6 86be 6fff 433d
000003b0: 24ee fd3d e154 c83e b2f1 20be 9e99 ecbd
000003c0: 9006 8d3d a77f 903c a9ab 7bbd 7e74 86be
000003d0: 4155 8dbd 401f b53b 195f b5be 7b05 b4be
000003e0: eccf 063e 1f46 ae3e 235a 9fbe 161c 6cbe
000003f0: 2fae 26be ba19 87be 8fe1 5e3e 32ad 443f

StatefulPartitionedCall/sequential_1/conv2d_5/Conv2D_bias f4 [30]
-0.26974884 -0.45740008 -0.5148349 -0.07615349 -0.37061045 -0.33261397 -0.05278161 -0.576494
-0.045264598 0.115145445 -0.40330335 -0.046036575 -0.004631508 0.08720538 -0.52920705 -0.42573968
0.06418156 0.081957564 0.027301714 -0.1884196 -0.0280897 -0.15760593 -0.3603214 -0.60019284
-0.43946943 0.17924835 -0.21843792 -0.36245927 0.003382985 -0.12522751
00000000: 851c 8abe 5830 eabe 38cc 03bf 5cf6 9bbd
00000010: a7c0 bdbe 614c aabe 8831 58bd 1c95 13bf
00000020: 5f67 39bd 60d1 eb3d c77d cebe d990 3cbd
00000030: e8c3 97bb bc98 b23d 1d7a 07bf 8dfa d9be
00000040: 9f71 833d 5ed9 a73d d8a7 df3c 11f1 40be
00000050: 5f1c e6bc 7363 21be 0c7c b8be 3da6 19bf
00000060: 2302 e1be e18c 373e 31ae 5fbe 4394 b9be
00000070: 12b5 5d3b a43b 00be

StatefulPartitionedCall/sequential_1/dense_2/MatMul/ReadVariableOp/transpose f4 [48, 30]
-0.12729126 -0.18486954 0.26246104 0.027201194 -0.4667258 0.21181838 0.05289821 0.032881044
-0.19968465 0.11328188 -0.17608602 -0.14900297 0.29234055 -0.28567186 -0.2236408 -0.10306992
-0.038158942 0.108927265 0.009977626 -0.13235274 0.09506401 0.058480877 -0.072841845 -0.32351217
-0.1728036 0.11362345 -0.20309499 -0.0646492 0.058083743 0.13033158 0.5642678 -0.032545492
-0.4414848 -0.03650045 0.07404336 -0.36236963 0.32947198 0.4383456 0.06698177 -0.4840936
0.016058028 -0.022801915 0.13330221 -0.15181494 0.37982255 -0.083613865 0.14070001 -0.17964394
-0.14586695 0.29817447 0.10665769 -0.16148646 -0.029051654 -0.12749012 0.13070138 -0.58816206
-0.19359697 0.47581238 -0.2201091 -0.593721 -0.015316708 -0.109061174 -0.0642112 0.43847167
-0.14438 0.52589 -0.14164406 -0.25402617 0.32571325 0.04556297 0.10370957 -0.8645292
0.1218067 0.041126046 0.15120465 -0.25632185 -0.36172143 0.15668851 0.47322893 -0.6385365
0.07330495 0.3060396 0.38176152 -0.19951919 -0.26084968 0.30099148 0.16658568 -0.22287488
-0.11214625 0.031524792 -0.47895768 0.046620436 0.46322832 -0.5951509 -0.06347231 0.044778053
0.2529821 0.2459943 0.07982475 -0.34989983 -0.1129083 0.01648311 0.24728924 -0.08989249
0.53590083 0.23416498 0.15675613 -0.48544326 0.026297664 -0.39752337 -0.9752847 0.024301566
-0.16069232 0.62617975 0.006852306 -0.40447223 0.069553964 -0.20174563 0.01322148 0.10522982
-0.008323983 -0.04397662 -0.18810754 -0.21202914 -0.1863591 0.0030467804 -0.23443526 0.13843855
-0.16491589 0.030870967 -0.05716566 -0.254255 0.12322389 -0.03774401 -0.0028306427 0.09596013
-0.24096824 -0.09175495 -0.086840756 -0.23853907 -0.28920406 -0.2720717 -0.15162271 0.0889586
0.17657594 0.005103603 -0.2811729 -0.2772811 -0.13540551 -0.29877988 -0.07976465 0.1262342
0.14686874 -0.18988125 -0.029208146 -0.21504639 -0.16202253 -0.18883058 -0.2030604 0.024433428
-0.10539129 -0.10331942 -0.16780435 -0.34478283 -0.0328453 -0.21786182 0.17786397 0.09281703
0.12742962 -0.27756664 -0.20338826 0.07119868 0.011155162 -0.2688971 -0.042425085 -0.17952006
-0.022234395 -0.2580478 0.0366332 -0.06406846 -0.06875513 -0.26337966 -0.61679155 -0.3842427
0.059743825 0.48376447 -0.3700914 -0.41538045 -0.17000026 -0.23856093 -0.52157086 -0.20074823
0.20654853 0.14842428 -0.9160817 -0.02554852 -0.75886166 0.058944434 0.35907984 -0.12059639
0.2678721 0.43980983 0.6294514 -0.25770858 0.13011089 -0.033265263 0.06584353 -0.13181736
-0.4188502 -0.08278349 0.31418896 -0.07526783 -0.36674738 0.017519189 0.026635977 -0.46175817
0.086716965 0.34811264 -0.113298595 -0.29416108 -0.36149243 -0.15024982 -0.26487297 0.07133039
0.15796871 -0.09405173 0.3480076 -0.21294595 -0.4651241 0.18523347 -0.041976348 -0.1428342
0.1379257 -0.06035495 -0.15797307 -0.4844232 -0.28796357 0.42096463 -0.2631291 -0.27331635
0.26931933 -0.27773395 -0.0399102 0.26529488 -0.24536425 0.23138237 0.028004505 -0.067192934
0.10930087 0.266287 -0.46220854 -0.21379848 0.2584889 0.43851617 0.15970342 -0.51490444
00000000: a458 02be 714e 3dbe 4b61 863e 0ad5 de3c
00000010: aff6 eebe ebe6 583e cbab 583d 46ae 063d
00000020: 227a 4cbe 5500 e83d e54f 34be 3c94 18be
00000030: a9ad 953e 9543 92be 1802 65be 5216 d3bd
00000040: 8d4c 1cbd 4215 df3d 3279 233c 7a87 07be
00000050: ebb0 c23d a589 6f3d 1b2e 95bd 63a3 a5be
00000060: 6df3 30be 69b3 e83d 22f8 4fbe cd66 84bd
00000070: 38e9 6d3d a475 053e db73 103f 6c4e 05bd
00000080: 4c0a e2be 7f81 15bd 0ca4 973d 8388 b9be
00000090: 8db0 a83e d66e e03e bd2d 893d 1edb f7be
000000a0: 208c 833c 15cb babc 6080 083e 6075 1bbe
000000b0: 1a78 c23e bf3d abbd aa13 103e 95f4 37be
000000c0: 255e 15be 53aa 983e 596f da3d b55c 25be
000000d0: bcfd edbc c58c 02be 95d6 053e ca91 16bf
000000e0: 493e 46be ae9d f33e 4864 61be 19fe 17bf
000000f0: eef2 7abc 775b dfbd 2981 83bd 5c7f e03e
00000100: 5ad8 13be baa0 063f 240b 11be b80f 82be
00000110: e3c3 a63e 3da0 3a3d af65 d43d c951 5dbf
00000120: cb75 f93d c973 283d 64d5 1a3e 9e3c 83be
00000130: 8d33 b9be f472 203e 104b f23e 2177 23bf
00000140: e820 963d 39b1 9c3e 3f76 c33e c24e 4cbe
00000150: 178e 85be 8e1b 9a3e 7095 2a3e 5039 64be
00000160: efac e5bd 2420 013d f139 f5be 12f5 3e3d
00000170: 432c ed3e cf5b 18bf c5fd 81bd 3169 373d
00000180: df86 813e eee5 7b3e 297b a33d 1226 b3be
00000190: 773c e7bd 9607 873c 6439 7d3e 8e19 b8bd
000001a0: cc30 093f f2c8 6f3e ae84 203e 058c f8be
000001b0: 336e d73c 2f88 cbbe 42ac 79bf 1414 c73c
000001c0: 878c 24be 514d 203f 4f89 e03b fc16 cfbe
000001d0: 4f72 8e3d 6896 4ebe e89e 583c bb82 d73d
000001e0: 5161 08bc d420 34bd 439f 40be 2b1e 59be
000001f0: ebd4 3ebe 7eac 473b cc0f 70be d6c2 0d3e
00000200: b6df 28be 1ce5 fc3c 8a26 6abd b62d 82be
00000210: cf5c fc3d 7799 1abd 4e82 39bb bf86 c43d
00000220: 61c0 76be 05ea bbbd 91d9 b1bd 9643 74be
00000230: 8e12 94be fb4c 8bbe fc42 1bbe ed2f b63d
00000240: 53d0 343e 203c a73b e5f5 8fbe caf7 8dbe
00000250: bea7 0abe adf9 98be a65b a3bd 8a43 013e
00000260: c264 163e 3b70 42be ec45 efbc 1f35 5cbe
00000270: 3ce9 25be ce5c 41be 11ef 4fbe 9d28 c83c
00000280: 63d7 d7bd 2299 d3bd e7d4 2bbe 6087 b0be
00000290: cb88 06bd 2b17 5fbe f921 363e db16 be3d
000002a0: e97c 023e 371d 8ebe 0345 50be 9dd0 913d
000002b0: 24c4 363c e1ac 89be edc5 2dbd 1bd4 37be
000002c0: e824 b6bc d71e 84be b20c 163d 5336 83bd
000002d0: 7dcf 8cbd b3d9 86be 0de6 1dbf 76bb c4be
000002e0: f1b5 743d faaf f73e 9f7c bdbe bfac d4be
000002f0: 8c14 2ebe 5149 74be ab85 05bf f290 4dbe
00000300: 7581 533e 89fc 173e 5584 6abf 214b d1bc
00000310: c244 42bf b86f 713d 50d9 b73e 3dfb f6bd
00000320: 8826 893e c12e e13e ba23 213f 61f2 83be
00000330: ca3b 053e 2841 08bd f9d8 863d 21fb 06be
00000340: 8973 d6be 648a a9bd 60dd a03e 0526 9abd
00000350: 50c6 bbbe 6784 8f3c b133 da3c 916b ecbe
00000360: aa98 b13d d23b b23e 1809 e8bd 489c 96be
00000370: 8915 b9be 17db 19be 6e9d 87be ab15 923d
00000380: 8dc2 213e 329e c0bd 0d2e b23e 810e 5abe
00000390: bf24 eebe d8ad 3d3e 64ef 2bbd 2143 12be
000003a0: 653c 0d3e c136 77bd b1c3 21be 5106 f8be
000003b0: f66f 93be ad88 d73e dbb8 86be 1ff0 8bbe
000003c0: 39e4 893e 2533 8ebe e178 23bd bbd4 873e
000003d0: c440 7bbe 80ef 6c3e b469 e53c 739c 89bd
000003e0: 22d9 df3d c556 883e 99a6 ecbe fded 5abe
000003f0: a858 843e 3185 e03e 4b89 233e c7d0 03bf

StatefulPartitionedCall/sequential_1/dense_2/MatMul_bias f4 [48]
-0.12991874 -0.29520023 0.18382904 -0.161036 -0.073154725 -0.058172014 0.08965643 -0.36698982
0.42858848 -0.06164042 -0.015699262 0.08529193 -0.34883797 -0.28363445 0.4013025 -0.42588773
0.0063960254 -0.16487591 0.116138674 0.2811204 -0.18422285 -0.056263704 -0.1714702 0.008095039
-0.095970266 -0.098910674 -0.2443543 -0.10104505 -0.18606068 -0.11414812 -0.04881322 -0.23451096
-0.16459726 0.2744736 -0.0027991245 -0.09044022 -0.15903877 0.029730285 -0.19023268 0.013634787
-0.2055009 -0.3322278 0.021566467 0.20542356 -0.49929222 -0.27085117 -0.13803734 0.081475176
00000000: 6b09 05be 7c24 97be ae3d 3c3e 9fe6 24be
00000010: 25d2 95bd c745 6ebd ca9d b73d 17e6 bbbe
00000020: f36f db3e aa7a 7cbd bd9b 80bc 89ad ae3d
00000030: e49a b2be 8938 91be 8577 cd3e f50d dabe
00000040: c095 d13b 3bd5 28be 1dda ed3d 03ef 8f3e
00000050: eaa4 3cbe c574 66bd e295 2fbe 0ea1 043c
00000060: 0f8c c4bd ae91 cabd 0338 7abe b5f0 cebd
00000070: b186 3ebe 7dc6 e9bd 5ff0 47bd a423 70be
00000080: 2f8c 28be ce87 8c3e 8471 37bb b938 b9bd
00000090: 0fdb 22be ed8c f33c 5bcc 42be 7164 5f3c
000000a0: d46e 52be c319 aabe 29ac b03c 8e5a 523e
000000b0: 3ba3 ffbe 01ad 8abe a959 0dbe 75dc a63d

StatefulPartitionedCall/sequential_1/dense_3/MatMul/ReadVariableOp/transpose f4 [2, 48]
-0.030370362 0.012229496 -0.13276443 -0.085826136 0.053078357 0.04470484 -0.099426165 -0.04163865
-0.29155505 -0.15142946 -0.06627297 -0.18177868 -0.09633513 -0.12624528 -0.026834307 -0.24599925
0.09784558 -0.058368426 -0.18890268 0.09001218 -0.052937552 -0.05705176 -0.10462415 0.16028659
0.043879855 -0.29061058 0.04507244 0.14389972 -0.15820742 -0.034952324 -0.18721046 0.084273234
0.15189052 -0.17495756 0.13223267 0.18312053 0.22489001 -0.11718861 0.14609548 0.30448624
-0.0036836427 0.2866886 -0.2249092 -0.099821016 0.04592574 0.09964059 0.058462333 -0.32964045
-0.03186841 -0.18458197 0.12691061 0.3777588 -0.09656961 -0.17995393 0.2601377 -0.15131521
0.35287583 0.08588918 0.14542264 0.032649755 -0.18070497 -0.36325923 0.15556902 -0.23193395
0.37800124 0.15667535 -0.05849445 0.19679481 -0.30469948 -0.062487464 -0.09228459 -0.22421472
0.015483932 -0.049244624 0.05826621 0.19144012 0.059089623 0.3722189 -0.18991303 0.12881927
-0.14157057 -0.06302912 0.34614992 -0.037011977 0.098799124 0.3471813 0.18867783 -0.3269699
0.070056245 0.017645419 -0.26002577 0.08074511 -0.16802686 0.25847715 0.052861083 -0.08581898
00000000: 44cb f8bc 395e 483c 66f3 07be 9dc5 afbd
00000010: b168 593d 6c1c 373d f29f cbbd 4a8d 2abd
00000020: b446 95be 5310 1bbe 1fba 87bd 3124 3abe
00000030: 5a4b c5bd 7146 01be 9fd3 dbbc 3ae7 7bbe
00000040: 4363 c83d bb13 6fbd b46f 41be 4e58 b83d
00000050: 0cd5 58bd 1baf 69bd 3045 d6bd 2b22 243e
00000060: 5dbb 333d e9ca 94be e19d 383d 735a 133e
00000070: 2001 22be 2b2a 0fbd 19b4 3fbe 7297 ac3d
00000080: 3089 1b3e 1328 33be 0068 073e f383 3b3e
00000090: 9149 663e 9500 f0bd 0e9a 153e 9fe5 9b3e
000000a0: 4569 71bb d9c8 923e 994e 66be f66e ccbd
000000b0: a11c 3c3d 5e10 cc3d 3376 6f3d a2c6 a8be
000000c0: 7388 02bd 0e03 3dbe dbf4 013e 9a69 c13e
000000d0: 4ac6 c5bd d845 38be c530 853e 60f2 1abe
000000e0: 24ac b43e abe6 af3d ace9 143e c0bb 053d
000000f0: b90a 39be 1dfd b9be 7c4d 1f3e 1880 6dbe
00000100: 6189 c13e 816f 203e e097 6fbd 9484 493e
00000110: 9201 9cbe dbf2 7fbd b4ff bcbd 8b98 65be
00000120: 51b0 7d3c bbb4 49bd 8da8 6e3d e108 443e
00000130: f607 723d 7a93 be3e 9078 42be 33e9 033e
00000140: e0f7 10be 6915 81bd 903a b13e df99 17bd
00000150: 3257 ca3d bfc1 b13e c334 413e 9968 a7be
00000160: a679 8f3d 208d 903c 1922 85be b15d a53d
00000170: 3c0f 2cbe 1e57 843e dd84 583d ddc1 afbd

StatefulPartitionedCall/sequential_1/dense_3/MatMul_bias f4 [2]
-0.078551255 0.07855081
00000000: 7bdf a0bd 3fdf a03d
